<?xml version="1.0"?>
<net name="torch-jit-export" version="11">
	<layers>
		<layer id="0" name="0" type="Parameter" version="opset1">
			<data shape="1,16,512" element_type="f32" />
			<rt_info>
				<attribute name="old_api_map_element_type" version="0" value="f16" />
			</rt_info>
			<output>
				<port id="0" precision="FP32" names="0">
					<dim>1</dim>
					<dim>16</dim>
					<dim>512</dim>
					<rt_info>
						<attribute name="layout" version="0" layout="[N,D,C]" />
					</rt_info>
				</port>
			</output>
		</layer>
		<layer id="1" name="Constant_5108_compressed" type="Const" version="opset1">
			<data element_type="f16" shape="1, 16, 512" offset="0" size="16384" />
			<output>
				<port id="0" precision="FP16">
					<dim>1</dim>
					<dim>16</dim>
					<dim>512</dim>
				</port>
			</output>
		</layer>
		<layer id="2" name="Constant_5108" type="Convert" version="opset1">
			<data destination_type="f32" />
			<rt_info>
				<attribute name="decompression" version="0" />
			</rt_info>
			<input>
				<port id="0" precision="FP16">
					<dim>1</dim>
					<dim>16</dim>
					<dim>512</dim>
				</port>
			</input>
			<output>
				<port id="1" precision="FP32">
					<dim>1</dim>
					<dim>16</dim>
					<dim>512</dim>
				</port>
			</output>
		</layer>
		<layer id="3" name="250" type="Add" version="opset1">
			<data auto_broadcast="numpy" />
			<input>
				<port id="0" precision="FP32">
					<dim>1</dim>
					<dim>16</dim>
					<dim>512</dim>
				</port>
				<port id="1" precision="FP32">
					<dim>1</dim>
					<dim>16</dim>
					<dim>512</dim>
				</port>
			</input>
			<output>
				<port id="2" precision="FP32" names="250">
					<dim>1</dim>
					<dim>16</dim>
					<dim>512</dim>
				</port>
			</output>
		</layer>
		<layer id="4" name="Convert_270" type="Const" version="opset1">
			<data element_type="i64" shape="3" offset="16384" size="24" />
			<output>
				<port id="0" precision="I64">
					<dim>3</dim>
				</port>
			</output>
		</layer>
		<layer id="5" name="264" type="Tile" version="opset1">
			<input>
				<port id="0" precision="FP32">
					<dim>1</dim>
					<dim>16</dim>
					<dim>512</dim>
				</port>
				<port id="1" precision="I64">
					<dim>3</dim>
				</port>
			</input>
			<output>
				<port id="2" precision="FP32" names="264">
					<dim>8</dim>
					<dim>16</dim>
					<dim>512</dim>
				</port>
			</output>
		</layer>
		<layer id="6" name="267" type="Const" version="opset1">
			<data element_type="i64" shape="1" offset="16408" size="8" />
			<output>
				<port id="0" precision="I64" names="267">
					<dim>1</dim>
				</port>
			</output>
		</layer>
		<layer id="7" name="268" type="Const" version="opset1">
			<data element_type="i64" shape="1" offset="16416" size="8" />
			<output>
				<port id="0" precision="I64" names="268">
					<dim>1</dim>
				</port>
			</output>
		</layer>
		<layer id="8" name="261" type="ShapeOf" version="opset3">
			<data output_type="i64" />
			<input>
				<port id="0" precision="FP32">
					<dim>1</dim>
					<dim>16</dim>
					<dim>512</dim>
				</port>
			</input>
			<output>
				<port id="1" precision="I64" names="252,255,258,261">
					<dim>3</dim>
				</port>
			</output>
		</layer>
		<layer id="9" name="Constant_4115" type="Const" version="opset1">
			<data element_type="i64" shape="1" offset="16424" size="8" />
			<output>
				<port id="0" precision="I64">
					<dim>1</dim>
				</port>
			</output>
		</layer>
		<layer id="10" name="Constant_267" type="Const" version="opset1">
			<data element_type="i64" shape="" offset="16432" size="8" />
			<output>
				<port id="0" precision="I64" />
			</output>
		</layer>
		<layer id="11" name="262" type="Gather" version="opset8">
			<data batch_dims="0" />
			<input>
				<port id="0" precision="I64">
					<dim>3</dim>
				</port>
				<port id="1" precision="I64">
					<dim>1</dim>
				</port>
				<port id="2" precision="I64" />
			</input>
			<output>
				<port id="3" precision="I64" names="269">
					<dim>1</dim>
				</port>
			</output>
		</layer>
		<layer id="12" name="270" type="Concat" version="opset1">
			<data axis="0" />
			<input>
				<port id="0" precision="I64">
					<dim>1</dim>
				</port>
				<port id="1" precision="I64">
					<dim>1</dim>
				</port>
				<port id="2" precision="I64">
					<dim>1</dim>
				</port>
			</input>
			<output>
				<port id="3" precision="I64" names="270">
					<dim>3</dim>
				</port>
			</output>
		</layer>
		<layer id="13" name="271" type="Reshape" version="opset1">
			<data special_zero="true" />
			<input>
				<port id="0" precision="FP32">
					<dim>8</dim>
					<dim>16</dim>
					<dim>512</dim>
				</port>
				<port id="1" precision="I64">
					<dim>3</dim>
				</port>
			</input>
			<output>
				<port id="2" precision="FP32" names="271">
					<dim>8</dim>
					<dim>16</dim>
					<dim>512</dim>
				</port>
			</output>
		</layer>
		<layer id="14" name="218_compressed" type="Const" version="opset1">
			<data element_type="f16" shape="8, 512, 64" offset="16440" size="524288" />
			<output>
				<port id="0" precision="FP16">
					<dim>8</dim>
					<dim>512</dim>
					<dim>64</dim>
				</port>
			</output>
		</layer>
		<layer id="15" name="218" type="Convert" version="opset1">
			<data destination_type="f32" />
			<rt_info>
				<attribute name="decompression" version="0" />
			</rt_info>
			<input>
				<port id="0" precision="FP16">
					<dim>8</dim>
					<dim>512</dim>
					<dim>64</dim>
				</port>
			</input>
			<output>
				<port id="1" precision="FP32" names="218">
					<dim>8</dim>
					<dim>512</dim>
					<dim>64</dim>
				</port>
			</output>
		</layer>
		<layer id="16" name="290" type="MatMul" version="opset1">
			<data transpose_a="false" transpose_b="false" />
			<input>
				<port id="0" precision="FP32">
					<dim>8</dim>
					<dim>16</dim>
					<dim>512</dim>
				</port>
				<port id="1" precision="FP32">
					<dim>8</dim>
					<dim>512</dim>
					<dim>64</dim>
				</port>
			</input>
			<output>
				<port id="2" precision="FP32" names="290">
					<dim>8</dim>
					<dim>16</dim>
					<dim>64</dim>
				</port>
			</output>
		</layer>
		<layer id="17" name="293" type="Const" version="opset1">
			<data element_type="i64" shape="1" offset="16416" size="8" />
			<output>
				<port id="0" precision="I64" names="293">
					<dim>1</dim>
				</port>
			</output>
		</layer>
		<layer id="18" name="Constant_4121" type="Const" version="opset1">
			<data element_type="i64" shape="1" offset="540728" size="8" />
			<output>
				<port id="0" precision="I64">
					<dim>1</dim>
				</port>
			</output>
		</layer>
		<layer id="19" name="Constant_255" type="Const" version="opset1">
			<data element_type="i64" shape="" offset="16432" size="8" />
			<output>
				<port id="0" precision="I64" />
			</output>
		</layer>
		<layer id="20" name="253" type="Gather" version="opset8">
			<data batch_dims="0" />
			<input>
				<port id="0" precision="I64">
					<dim>3</dim>
				</port>
				<port id="1" precision="I64">
					<dim>1</dim>
				</port>
				<port id="2" precision="I64" />
			</input>
			<output>
				<port id="3" precision="I64" names="294">
					<dim>1</dim>
				</port>
			</output>
		</layer>
		<layer id="21" name="295" type="Const" version="opset1">
			<data element_type="i64" shape="1" offset="540736" size="8" />
			<output>
				<port id="0" precision="I64" names="295">
					<dim>1</dim>
				</port>
			</output>
		</layer>
		<layer id="22" name="296" type="Concat" version="opset1">
			<data axis="0" />
			<input>
				<port id="0" precision="I64">
					<dim>1</dim>
				</port>
				<port id="1" precision="I64">
					<dim>1</dim>
				</port>
				<port id="2" precision="I64">
					<dim>1</dim>
				</port>
			</input>
			<output>
				<port id="3" precision="I64" names="296">
					<dim>3</dim>
				</port>
			</output>
		</layer>
		<layer id="23" name="297" type="Reshape" version="opset1">
			<data special_zero="true" />
			<input>
				<port id="0" precision="FP32">
					<dim>8</dim>
					<dim>16</dim>
					<dim>64</dim>
				</port>
				<port id="1" precision="I64">
					<dim>3</dim>
				</port>
			</input>
			<output>
				<port id="2" precision="FP32" names="297">
					<dim>8</dim>
					<dim>16</dim>
					<dim>64</dim>
				</port>
			</output>
		</layer>
		<layer id="24" name="Convert_294" type="Const" version="opset1">
			<data element_type="i64" shape="3" offset="16384" size="24" />
			<output>
				<port id="0" precision="I64">
					<dim>3</dim>
				</port>
			</output>
		</layer>
		<layer id="25" name="273" type="Tile" version="opset1">
			<input>
				<port id="0" precision="FP32">
					<dim>1</dim>
					<dim>16</dim>
					<dim>512</dim>
				</port>
				<port id="1" precision="I64">
					<dim>3</dim>
				</port>
			</input>
			<output>
				<port id="2" precision="FP32" names="273">
					<dim>8</dim>
					<dim>16</dim>
					<dim>512</dim>
				</port>
			</output>
		</layer>
		<layer id="26" name="276" type="Const" version="opset1">
			<data element_type="i64" shape="1" offset="16408" size="8" />
			<output>
				<port id="0" precision="I64" names="276">
					<dim>1</dim>
				</port>
			</output>
		</layer>
		<layer id="27" name="277" type="Const" version="opset1">
			<data element_type="i64" shape="1" offset="16416" size="8" />
			<output>
				<port id="0" precision="I64" names="277">
					<dim>1</dim>
				</port>
			</output>
		</layer>
		<layer id="28" name="Constant_4127" type="Const" version="opset1">
			<data element_type="i64" shape="1" offset="16424" size="8" />
			<output>
				<port id="0" precision="I64">
					<dim>1</dim>
				</port>
			</output>
		</layer>
		<layer id="29" name="2620" type="Gather" version="opset8">
			<data batch_dims="0" />
			<input>
				<port id="0" precision="I64">
					<dim>3</dim>
				</port>
				<port id="1" precision="I64">
					<dim>1</dim>
				</port>
				<port id="2" precision="I64" />
			</input>
			<output>
				<port id="3" precision="I64" names="278">
					<dim>1</dim>
				</port>
			</output>
		</layer>
		<layer id="30" name="279" type="Concat" version="opset1">
			<data axis="0" />
			<input>
				<port id="0" precision="I64">
					<dim>1</dim>
				</port>
				<port id="1" precision="I64">
					<dim>1</dim>
				</port>
				<port id="2" precision="I64">
					<dim>1</dim>
				</port>
			</input>
			<output>
				<port id="3" precision="I64" names="279">
					<dim>3</dim>
				</port>
			</output>
		</layer>
		<layer id="31" name="280" type="Reshape" version="opset1">
			<data special_zero="true" />
			<input>
				<port id="0" precision="FP32">
					<dim>8</dim>
					<dim>16</dim>
					<dim>512</dim>
				</port>
				<port id="1" precision="I64">
					<dim>3</dim>
				</port>
			</input>
			<output>
				<port id="2" precision="FP32" names="280">
					<dim>8</dim>
					<dim>16</dim>
					<dim>512</dim>
				</port>
			</output>
		</layer>
		<layer id="32" name="219_compressed" type="Const" version="opset1">
			<data element_type="f16" shape="8, 512, 64" offset="540744" size="524288" />
			<output>
				<port id="0" precision="FP16">
					<dim>8</dim>
					<dim>512</dim>
					<dim>64</dim>
				</port>
			</output>
		</layer>
		<layer id="33" name="219" type="Convert" version="opset1">
			<data destination_type="f32" />
			<rt_info>
				<attribute name="decompression" version="0" />
			</rt_info>
			<input>
				<port id="0" precision="FP16">
					<dim>8</dim>
					<dim>512</dim>
					<dim>64</dim>
				</port>
			</input>
			<output>
				<port id="1" precision="FP32" names="219">
					<dim>8</dim>
					<dim>512</dim>
					<dim>64</dim>
				</port>
			</output>
		</layer>
		<layer id="34" name="298" type="MatMul" version="opset1">
			<data transpose_a="false" transpose_b="false" />
			<input>
				<port id="0" precision="FP32">
					<dim>8</dim>
					<dim>16</dim>
					<dim>512</dim>
				</port>
				<port id="1" precision="FP32">
					<dim>8</dim>
					<dim>512</dim>
					<dim>64</dim>
				</port>
			</input>
			<output>
				<port id="2" precision="FP32" names="298">
					<dim>8</dim>
					<dim>16</dim>
					<dim>64</dim>
				</port>
			</output>
		</layer>
		<layer id="35" name="301" type="Const" version="opset1">
			<data element_type="i64" shape="1" offset="16416" size="8" />
			<output>
				<port id="0" precision="I64" names="301">
					<dim>1</dim>
				</port>
			</output>
		</layer>
		<layer id="36" name="Constant_4133" type="Const" version="opset1">
			<data element_type="i64" shape="1" offset="540728" size="8" />
			<output>
				<port id="0" precision="I64">
					<dim>1</dim>
				</port>
			</output>
		</layer>
		<layer id="37" name="Constant_259" type="Const" version="opset1">
			<data element_type="i64" shape="" offset="16432" size="8" />
			<output>
				<port id="0" precision="I64" />
			</output>
		</layer>
		<layer id="38" name="256" type="Gather" version="opset8">
			<data batch_dims="0" />
			<input>
				<port id="0" precision="I64">
					<dim>3</dim>
				</port>
				<port id="1" precision="I64">
					<dim>1</dim>
				</port>
				<port id="2" precision="I64" />
			</input>
			<output>
				<port id="3" precision="I64" names="302">
					<dim>1</dim>
				</port>
			</output>
		</layer>
		<layer id="39" name="303" type="Const" version="opset1">
			<data element_type="i64" shape="1" offset="540736" size="8" />
			<output>
				<port id="0" precision="I64" names="303">
					<dim>1</dim>
				</port>
			</output>
		</layer>
		<layer id="40" name="304" type="Concat" version="opset1">
			<data axis="0" />
			<input>
				<port id="0" precision="I64">
					<dim>1</dim>
				</port>
				<port id="1" precision="I64">
					<dim>1</dim>
				</port>
				<port id="2" precision="I64">
					<dim>1</dim>
				</port>
			</input>
			<output>
				<port id="3" precision="I64" names="304">
					<dim>3</dim>
				</port>
			</output>
		</layer>
		<layer id="41" name="305" type="Reshape" version="opset1">
			<data special_zero="true" />
			<input>
				<port id="0" precision="FP32">
					<dim>8</dim>
					<dim>16</dim>
					<dim>64</dim>
				</port>
				<port id="1" precision="I64">
					<dim>3</dim>
				</port>
			</input>
			<output>
				<port id="2" precision="FP32" names="305">
					<dim>8</dim>
					<dim>16</dim>
					<dim>64</dim>
				</port>
			</output>
		</layer>
		<layer id="42" name="Constant_5109_compressed" type="Const" version="opset1">
			<data element_type="f16" shape="1, 1, 1" offset="1065032" size="2" />
			<output>
				<port id="0" precision="FP16">
					<dim>1</dim>
					<dim>1</dim>
					<dim>1</dim>
				</port>
			</output>
		</layer>
		<layer id="43" name="Constant_5109" type="Convert" version="opset1">
			<data destination_type="f32" />
			<rt_info>
				<attribute name="decompression" version="0" />
			</rt_info>
			<input>
				<port id="0" precision="FP16">
					<dim>1</dim>
					<dim>1</dim>
					<dim>1</dim>
				</port>
			</input>
			<output>
				<port id="1" precision="FP32">
					<dim>1</dim>
					<dim>1</dim>
					<dim>1</dim>
				</port>
			</output>
		</layer>
		<layer id="44" name="Multiply_4948" type="Multiply" version="opset1">
			<data auto_broadcast="numpy" />
			<input>
				<port id="0" precision="FP32">
					<dim>8</dim>
					<dim>16</dim>
					<dim>64</dim>
				</port>
				<port id="1" precision="FP32">
					<dim>1</dim>
					<dim>1</dim>
					<dim>1</dim>
				</port>
			</input>
			<output>
				<port id="2" precision="FP32">
					<dim>8</dim>
					<dim>16</dim>
					<dim>64</dim>
				</port>
			</output>
		</layer>
		<layer id="45" name="317" type="MatMul" version="opset1">
			<data transpose_a="false" transpose_b="true" />
			<input>
				<port id="0" precision="FP32">
					<dim>8</dim>
					<dim>16</dim>
					<dim>64</dim>
				</port>
				<port id="1" precision="FP32">
					<dim>8</dim>
					<dim>16</dim>
					<dim>64</dim>
				</port>
			</input>
			<output>
				<port id="2" precision="FP32" names="317">
					<dim>8</dim>
					<dim>16</dim>
					<dim>16</dim>
				</port>
			</output>
		</layer>
		<layer id="46" name="319" type="ShapeOf" version="opset3">
			<data output_type="i64" />
			<input>
				<port id="0" precision="FP32">
					<dim>8</dim>
					<dim>16</dim>
					<dim>16</dim>
				</port>
			</input>
			<output>
				<port id="1" precision="I64" names="319,322">
					<dim>3</dim>
				</port>
			</output>
		</layer>
		<layer id="47" name="318" type="Const" version="opset1">
			<data element_type="i64" shape="" offset="16432" size="8" />
			<output>
				<port id="0" precision="I64" names="318" />
			</output>
		</layer>
		<layer id="48" name="Constant_387" type="Const" version="opset1">
			<data element_type="i64" shape="" offset="16432" size="8" />
			<output>
				<port id="0" precision="I64" />
			</output>
		</layer>
		<layer id="49" name="320" type="Gather" version="opset8">
			<data batch_dims="0" />
			<input>
				<port id="0" precision="I64">
					<dim>3</dim>
				</port>
				<port id="1" precision="I64" />
				<port id="2" precision="I64" />
			</input>
			<output>
				<port id="3" precision="I64" names="320" />
			</output>
		</layer>
		<layer id="50" name="321" type="Const" version="opset1">
			<data element_type="i64" shape="" offset="540728" size="8" />
			<output>
				<port id="0" precision="I64" names="321" />
			</output>
		</layer>
		<layer id="51" name="Constant_391" type="Const" version="opset1">
			<data element_type="i64" shape="" offset="16432" size="8" />
			<output>
				<port id="0" precision="I64" />
			</output>
		</layer>
		<layer id="52" name="323" type="Gather" version="opset8">
			<data batch_dims="0" />
			<input>
				<port id="0" precision="I64">
					<dim>3</dim>
				</port>
				<port id="1" precision="I64" />
				<port id="2" precision="I64" />
			</input>
			<output>
				<port id="3" precision="I64" names="323" />
			</output>
		</layer>
		<layer id="53" name="324" type="Multiply" version="opset1">
			<data auto_broadcast="numpy" />
			<input>
				<port id="0" precision="I64" />
				<port id="1" precision="I64" />
			</input>
			<output>
				<port id="2" precision="I64" names="324" />
			</output>
		</layer>
		<layer id="54" name="Constant_395" type="Const" version="opset1">
			<data element_type="i64" shape="1" offset="16432" size="8" />
			<output>
				<port id="0" precision="I64">
					<dim>1</dim>
				</port>
			</output>
		</layer>
		<layer id="55" name="326" type="Unsqueeze" version="opset1">
			<input>
				<port id="0" precision="I64" />
				<port id="1" precision="I64">
					<dim>1</dim>
				</port>
			</input>
			<output>
				<port id="2" precision="I64" names="326">
					<dim>1</dim>
				</port>
			</output>
		</layer>
		<layer id="56" name="327" type="Const" version="opset1">
			<data element_type="i64" shape="1" offset="16416" size="8" />
			<output>
				<port id="0" precision="I64" names="327">
					<dim>1</dim>
				</port>
			</output>
		</layer>
		<layer id="57" name="328" type="Concat" version="opset1">
			<data axis="0" />
			<input>
				<port id="0" precision="I64">
					<dim>1</dim>
				</port>
				<port id="1" precision="I64">
					<dim>1</dim>
				</port>
			</input>
			<output>
				<port id="2" precision="I64" names="328">
					<dim>2</dim>
				</port>
			</output>
		</layer>
		<layer id="58" name="329" type="Reshape" version="opset1">
			<data special_zero="true" />
			<input>
				<port id="0" precision="FP32">
					<dim>8</dim>
					<dim>16</dim>
					<dim>16</dim>
				</port>
				<port id="1" precision="I64">
					<dim>2</dim>
				</port>
			</input>
			<output>
				<port id="2" precision="FP32" names="329">
					<dim>128</dim>
					<dim>16</dim>
				</port>
			</output>
		</layer>
		<layer id="59" name="Constant_403" type="Const" version="opset1">
			<data element_type="i64" shape="2" offset="1065034" size="16" />
			<output>
				<port id="0" precision="I64">
					<dim>2</dim>
				</port>
			</output>
		</layer>
		<layer id="60" name="Reshape_404" type="Reshape" version="opset1">
			<data special_zero="true" />
			<input>
				<port id="0" precision="FP32">
					<dim>128</dim>
					<dim>16</dim>
				</port>
				<port id="1" precision="I64">
					<dim>2</dim>
				</port>
			</input>
			<output>
				<port id="2" precision="FP32">
					<dim>128</dim>
					<dim>16</dim>
				</port>
			</output>
		</layer>
		<layer id="61" name="Softmax_407" type="SoftMax" version="opset8">
			<data axis="1" />
			<input>
				<port id="0" precision="FP32">
					<dim>128</dim>
					<dim>16</dim>
				</port>
			</input>
			<output>
				<port id="1" precision="FP32">
					<dim>128</dim>
					<dim>16</dim>
				</port>
			</output>
		</layer>
		<layer id="62" name="ShapeOf_408" type="ShapeOf" version="opset3">
			<data output_type="i64" />
			<input>
				<port id="0" precision="FP32">
					<dim>128</dim>
					<dim>16</dim>
				</port>
			</input>
			<output>
				<port id="1" precision="I64">
					<dim>2</dim>
				</port>
			</output>
		</layer>
		<layer id="63" name="330" type="Reshape" version="opset1">
			<data special_zero="false" />
			<input>
				<port id="0" precision="FP32">
					<dim>128</dim>
					<dim>16</dim>
				</port>
				<port id="1" precision="I64">
					<dim>2</dim>
				</port>
			</input>
			<output>
				<port id="2" precision="FP32" names="330">
					<dim>128</dim>
					<dim>16</dim>
				</port>
			</output>
		</layer>
		<layer id="64" name="Constant_4304" type="Const" version="opset1">
			<data element_type="i64" shape="2" offset="1065050" size="16" />
			<output>
				<port id="0" precision="I64">
					<dim>2</dim>
				</port>
			</output>
		</layer>
		<layer id="65" name="Constant_4305" type="Const" version="opset1">
			<data element_type="i64" shape="" offset="16432" size="8" />
			<output>
				<port id="0" precision="I64" />
			</output>
		</layer>
		<layer id="66" name="Gather_4306" type="Gather" version="opset8">
			<data batch_dims="0" />
			<input>
				<port id="0" precision="I64">
					<dim>3</dim>
				</port>
				<port id="1" precision="I64">
					<dim>2</dim>
				</port>
				<port id="2" precision="I64" />
			</input>
			<output>
				<port id="3" precision="I64">
					<dim>2</dim>
				</port>
			</output>
		</layer>
		<layer id="67" name="334" type="Const" version="opset1">
			<data element_type="i64" shape="1" offset="16416" size="8" />
			<output>
				<port id="0" precision="I64" names="334">
					<dim>1</dim>
				</port>
			</output>
		</layer>
		<layer id="68" name="335" type="Concat" version="opset1">
			<data axis="0" />
			<input>
				<port id="0" precision="I64">
					<dim>2</dim>
				</port>
				<port id="1" precision="I64">
					<dim>1</dim>
				</port>
			</input>
			<output>
				<port id="2" precision="I64" names="335">
					<dim>3</dim>
				</port>
			</output>
		</layer>
		<layer id="69" name="337" type="Reshape" version="opset1">
			<data special_zero="true" />
			<input>
				<port id="0" precision="FP32">
					<dim>128</dim>
					<dim>16</dim>
				</port>
				<port id="1" precision="I64">
					<dim>3</dim>
				</port>
			</input>
			<output>
				<port id="2" precision="FP32" names="337">
					<dim>8</dim>
					<dim>16</dim>
					<dim>16</dim>
				</port>
			</output>
		</layer>
		<layer id="70" name="Convert_318" type="Const" version="opset1">
			<data element_type="i64" shape="3" offset="16384" size="24" />
			<output>
				<port id="0" precision="I64">
					<dim>3</dim>
				</port>
			</output>
		</layer>
		<layer id="71" name="282" type="Tile" version="opset1">
			<input>
				<port id="0" precision="FP32">
					<dim>1</dim>
					<dim>16</dim>
					<dim>512</dim>
				</port>
				<port id="1" precision="I64">
					<dim>3</dim>
				</port>
			</input>
			<output>
				<port id="2" precision="FP32" names="282">
					<dim>8</dim>
					<dim>16</dim>
					<dim>512</dim>
				</port>
			</output>
		</layer>
		<layer id="72" name="285" type="Const" version="opset1">
			<data element_type="i64" shape="1" offset="16408" size="8" />
			<output>
				<port id="0" precision="I64" names="285">
					<dim>1</dim>
				</port>
			</output>
		</layer>
		<layer id="73" name="286" type="Const" version="opset1">
			<data element_type="i64" shape="1" offset="16416" size="8" />
			<output>
				<port id="0" precision="I64" names="286">
					<dim>1</dim>
				</port>
			</output>
		</layer>
		<layer id="74" name="Constant_4151" type="Const" version="opset1">
			<data element_type="i64" shape="1" offset="16424" size="8" />
			<output>
				<port id="0" precision="I64">
					<dim>1</dim>
				</port>
			</output>
		</layer>
		<layer id="75" name="2621" type="Gather" version="opset8">
			<data batch_dims="0" />
			<input>
				<port id="0" precision="I64">
					<dim>3</dim>
				</port>
				<port id="1" precision="I64">
					<dim>1</dim>
				</port>
				<port id="2" precision="I64" />
			</input>
			<output>
				<port id="3" precision="I64" names="287">
					<dim>1</dim>
				</port>
			</output>
		</layer>
		<layer id="76" name="288" type="Concat" version="opset1">
			<data axis="0" />
			<input>
				<port id="0" precision="I64">
					<dim>1</dim>
				</port>
				<port id="1" precision="I64">
					<dim>1</dim>
				</port>
				<port id="2" precision="I64">
					<dim>1</dim>
				</port>
			</input>
			<output>
				<port id="3" precision="I64" names="288">
					<dim>3</dim>
				</port>
			</output>
		</layer>
		<layer id="77" name="289" type="Reshape" version="opset1">
			<data special_zero="true" />
			<input>
				<port id="0" precision="FP32">
					<dim>8</dim>
					<dim>16</dim>
					<dim>512</dim>
				</port>
				<port id="1" precision="I64">
					<dim>3</dim>
				</port>
			</input>
			<output>
				<port id="2" precision="FP32" names="289">
					<dim>8</dim>
					<dim>16</dim>
					<dim>512</dim>
				</port>
			</output>
		</layer>
		<layer id="78" name="220_compressed" type="Const" version="opset1">
			<data element_type="f16" shape="8, 512, 64" offset="1065066" size="524288" />
			<output>
				<port id="0" precision="FP16">
					<dim>8</dim>
					<dim>512</dim>
					<dim>64</dim>
				</port>
			</output>
		</layer>
		<layer id="79" name="220" type="Convert" version="opset1">
			<data destination_type="f32" />
			<rt_info>
				<attribute name="decompression" version="0" />
			</rt_info>
			<input>
				<port id="0" precision="FP16">
					<dim>8</dim>
					<dim>512</dim>
					<dim>64</dim>
				</port>
			</input>
			<output>
				<port id="1" precision="FP32" names="220">
					<dim>8</dim>
					<dim>512</dim>
					<dim>64</dim>
				</port>
			</output>
		</layer>
		<layer id="80" name="306" type="MatMul" version="opset1">
			<data transpose_a="false" transpose_b="false" />
			<input>
				<port id="0" precision="FP32">
					<dim>8</dim>
					<dim>16</dim>
					<dim>512</dim>
				</port>
				<port id="1" precision="FP32">
					<dim>8</dim>
					<dim>512</dim>
					<dim>64</dim>
				</port>
			</input>
			<output>
				<port id="2" precision="FP32" names="306">
					<dim>8</dim>
					<dim>16</dim>
					<dim>64</dim>
				</port>
			</output>
		</layer>
		<layer id="81" name="309" type="Const" version="opset1">
			<data element_type="i64" shape="1" offset="16416" size="8" />
			<output>
				<port id="0" precision="I64" names="309">
					<dim>1</dim>
				</port>
			</output>
		</layer>
		<layer id="82" name="Constant_4157" type="Const" version="opset1">
			<data element_type="i64" shape="1" offset="540728" size="8" />
			<output>
				<port id="0" precision="I64">
					<dim>1</dim>
				</port>
			</output>
		</layer>
		<layer id="83" name="Constant_263" type="Const" version="opset1">
			<data element_type="i64" shape="" offset="16432" size="8" />
			<output>
				<port id="0" precision="I64" />
			</output>
		</layer>
		<layer id="84" name="259" type="Gather" version="opset8">
			<data batch_dims="0" />
			<input>
				<port id="0" precision="I64">
					<dim>3</dim>
				</port>
				<port id="1" precision="I64">
					<dim>1</dim>
				</port>
				<port id="2" precision="I64" />
			</input>
			<output>
				<port id="3" precision="I64" names="310">
					<dim>1</dim>
				</port>
			</output>
		</layer>
		<layer id="85" name="311" type="Const" version="opset1">
			<data element_type="i64" shape="1" offset="540736" size="8" />
			<output>
				<port id="0" precision="I64" names="311">
					<dim>1</dim>
				</port>
			</output>
		</layer>
		<layer id="86" name="312" type="Concat" version="opset1">
			<data axis="0" />
			<input>
				<port id="0" precision="I64">
					<dim>1</dim>
				</port>
				<port id="1" precision="I64">
					<dim>1</dim>
				</port>
				<port id="2" precision="I64">
					<dim>1</dim>
				</port>
			</input>
			<output>
				<port id="3" precision="I64" names="312">
					<dim>3</dim>
				</port>
			</output>
		</layer>
		<layer id="87" name="313" type="Reshape" version="opset1">
			<data special_zero="true" />
			<input>
				<port id="0" precision="FP32">
					<dim>8</dim>
					<dim>16</dim>
					<dim>64</dim>
				</port>
				<port id="1" precision="I64">
					<dim>3</dim>
				</port>
			</input>
			<output>
				<port id="2" precision="FP32" names="313">
					<dim>8</dim>
					<dim>16</dim>
					<dim>64</dim>
				</port>
			</output>
		</layer>
		<layer id="88" name="339" type="MatMul" version="opset1">
			<data transpose_a="false" transpose_b="false" />
			<input>
				<port id="0" precision="FP32">
					<dim>8</dim>
					<dim>16</dim>
					<dim>16</dim>
				</port>
				<port id="1" precision="FP32">
					<dim>8</dim>
					<dim>16</dim>
					<dim>64</dim>
				</port>
			</input>
			<output>
				<port id="2" precision="FP32" names="339">
					<dim>8</dim>
					<dim>16</dim>
					<dim>64</dim>
				</port>
			</output>
		</layer>
		<layer id="89" name="340" type="Const" version="opset1">
			<data element_type="i64" shape="4" offset="1589354" size="32" />
			<output>
				<port id="0" precision="I64" names="340">
					<dim>4</dim>
				</port>
			</output>
		</layer>
		<layer id="90" name="341" type="Reshape" version="opset1">
			<data special_zero="true" />
			<input>
				<port id="0" precision="FP32">
					<dim>8</dim>
					<dim>16</dim>
					<dim>64</dim>
				</port>
				<port id="1" precision="I64">
					<dim>4</dim>
				</port>
			</input>
			<output>
				<port id="2" precision="FP32" names="341">
					<dim>8</dim>
					<dim>1</dim>
					<dim>16</dim>
					<dim>64</dim>
				</port>
			</output>
		</layer>
		<layer id="91" name="Constant_433" type="Const" version="opset1">
			<data element_type="i64" shape="4" offset="1589386" size="32" />
			<output>
				<port id="0" precision="I64">
					<dim>4</dim>
				</port>
			</output>
		</layer>
		<layer id="92" name="342" type="Transpose" version="opset1">
			<input>
				<port id="0" precision="FP32">
					<dim>8</dim>
					<dim>1</dim>
					<dim>16</dim>
					<dim>64</dim>
				</port>
				<port id="1" precision="I64">
					<dim>4</dim>
				</port>
			</input>
			<output>
				<port id="2" precision="FP32" names="342">
					<dim>1</dim>
					<dim>16</dim>
					<dim>8</dim>
					<dim>64</dim>
				</port>
			</output>
		</layer>
		<layer id="93" name="343" type="Const" version="opset1">
			<data element_type="i64" shape="3" offset="1589418" size="24" />
			<output>
				<port id="0" precision="I64" names="343">
					<dim>3</dim>
				</port>
			</output>
		</layer>
		<layer id="94" name="345" type="Reshape" version="opset1">
			<data special_zero="true" />
			<input>
				<port id="0" precision="FP32">
					<dim>1</dim>
					<dim>16</dim>
					<dim>8</dim>
					<dim>64</dim>
				</port>
				<port id="1" precision="I64">
					<dim>3</dim>
				</port>
			</input>
			<output>
				<port id="2" precision="FP32" names="345">
					<dim>1</dim>
					<dim>16</dim>
					<dim>512</dim>
				</port>
			</output>
		</layer>
		<layer id="95" name="347" type="Add" version="opset1">
			<data auto_broadcast="numpy" />
			<input>
				<port id="0" precision="FP32">
					<dim>1</dim>
					<dim>16</dim>
					<dim>512</dim>
				</port>
				<port id="1" precision="FP32">
					<dim>1</dim>
					<dim>16</dim>
					<dim>512</dim>
				</port>
			</input>
			<output>
				<port id="2" precision="FP32" names="347">
					<dim>1</dim>
					<dim>16</dim>
					<dim>512</dim>
				</port>
			</output>
		</layer>
		<layer id="96" name="Constant_445" type="Const" version="opset1">
			<data element_type="i64" shape="3" offset="1589442" size="24" />
			<output>
				<port id="0" precision="I64">
					<dim>3</dim>
				</port>
			</output>
		</layer>
		<layer id="97" name="348" type="Transpose" version="opset1">
			<input>
				<port id="0" precision="FP32">
					<dim>1</dim>
					<dim>16</dim>
					<dim>512</dim>
				</port>
				<port id="1" precision="I64">
					<dim>3</dim>
				</port>
			</input>
			<output>
				<port id="2" precision="FP32" names="348">
					<dim>1</dim>
					<dim>512</dim>
					<dim>16</dim>
				</port>
			</output>
		</layer>
		<layer id="98" name="221_compressed" type="Const" version="opset1">
			<data element_type="f16" shape="1024, 512, 1" offset="1589466" size="1048576" />
			<output>
				<port id="0" precision="FP16">
					<dim>1024</dim>
					<dim>512</dim>
					<dim>1</dim>
				</port>
			</output>
		</layer>
		<layer id="99" name="221" type="Convert" version="opset1">
			<data destination_type="f32" />
			<rt_info>
				<attribute name="decompression" version="0" />
			</rt_info>
			<input>
				<port id="0" precision="FP16">
					<dim>1024</dim>
					<dim>512</dim>
					<dim>1</dim>
				</port>
			</input>
			<output>
				<port id="1" precision="FP32" names="221">
					<dim>1024</dim>
					<dim>512</dim>
					<dim>1</dim>
				</port>
			</output>
		</layer>
		<layer id="100" name="349/WithoutBiases" type="Convolution" version="opset1">
			<data strides="1" dilations="1" pads_begin="0" pads_end="0" auto_pad="explicit" />
			<input>
				<port id="0" precision="FP32">
					<dim>1</dim>
					<dim>512</dim>
					<dim>16</dim>
				</port>
				<port id="1" precision="FP32">
					<dim>1024</dim>
					<dim>512</dim>
					<dim>1</dim>
				</port>
			</input>
			<output>
				<port id="2" precision="FP32">
					<dim>1</dim>
					<dim>1024</dim>
					<dim>16</dim>
				</port>
			</output>
		</layer>
		<layer id="101" name="Reshape_458_compressed" type="Const" version="opset1">
			<data element_type="f16" shape="1, 1024, 1" offset="2638042" size="2048" />
			<output>
				<port id="0" precision="FP16">
					<dim>1</dim>
					<dim>1024</dim>
					<dim>1</dim>
				</port>
			</output>
		</layer>
		<layer id="102" name="Reshape_458" type="Convert" version="opset1">
			<data destination_type="f32" />
			<rt_info>
				<attribute name="decompression" version="0" />
			</rt_info>
			<input>
				<port id="0" precision="FP16">
					<dim>1</dim>
					<dim>1024</dim>
					<dim>1</dim>
				</port>
			</input>
			<output>
				<port id="1" precision="FP32">
					<dim>1</dim>
					<dim>1024</dim>
					<dim>1</dim>
				</port>
			</output>
		</layer>
		<layer id="103" name="349" type="Add" version="opset1">
			<data auto_broadcast="numpy" />
			<input>
				<port id="0" precision="FP32">
					<dim>1</dim>
					<dim>1024</dim>
					<dim>16</dim>
				</port>
				<port id="1" precision="FP32">
					<dim>1</dim>
					<dim>1024</dim>
					<dim>1</dim>
				</port>
			</input>
			<output>
				<port id="2" precision="FP32" names="349">
					<dim>1</dim>
					<dim>1024</dim>
					<dim>16</dim>
				</port>
			</output>
		</layer>
		<layer id="104" name="350" type="ReLU" version="opset1">
			<input>
				<port id="0" precision="FP32">
					<dim>1</dim>
					<dim>1024</dim>
					<dim>16</dim>
				</port>
			</input>
			<output>
				<port id="1" precision="FP32" names="350">
					<dim>1</dim>
					<dim>1024</dim>
					<dim>16</dim>
				</port>
			</output>
		</layer>
		<layer id="105" name="223_compressed" type="Const" version="opset1">
			<data element_type="f16" shape="512, 1024, 1" offset="2640090" size="1048576" />
			<output>
				<port id="0" precision="FP16">
					<dim>512</dim>
					<dim>1024</dim>
					<dim>1</dim>
				</port>
			</output>
		</layer>
		<layer id="106" name="223" type="Convert" version="opset1">
			<data destination_type="f32" />
			<rt_info>
				<attribute name="decompression" version="0" />
			</rt_info>
			<input>
				<port id="0" precision="FP16">
					<dim>512</dim>
					<dim>1024</dim>
					<dim>1</dim>
				</port>
			</input>
			<output>
				<port id="1" precision="FP32" names="223">
					<dim>512</dim>
					<dim>1024</dim>
					<dim>1</dim>
				</port>
			</output>
		</layer>
		<layer id="107" name="351/WithoutBiases" type="Convolution" version="opset1">
			<data strides="1" dilations="1" pads_begin="0" pads_end="0" auto_pad="explicit" />
			<input>
				<port id="0" precision="FP32">
					<dim>1</dim>
					<dim>1024</dim>
					<dim>16</dim>
				</port>
				<port id="1" precision="FP32">
					<dim>512</dim>
					<dim>1024</dim>
					<dim>1</dim>
				</port>
			</input>
			<output>
				<port id="2" precision="FP32">
					<dim>1</dim>
					<dim>512</dim>
					<dim>16</dim>
				</port>
			</output>
		</layer>
		<layer id="108" name="Reshape_474_compressed" type="Const" version="opset1">
			<data element_type="f16" shape="1, 512, 1" offset="3688666" size="1024" />
			<output>
				<port id="0" precision="FP16">
					<dim>1</dim>
					<dim>512</dim>
					<dim>1</dim>
				</port>
			</output>
		</layer>
		<layer id="109" name="Reshape_474" type="Convert" version="opset1">
			<data destination_type="f32" />
			<rt_info>
				<attribute name="decompression" version="0" />
			</rt_info>
			<input>
				<port id="0" precision="FP16">
					<dim>1</dim>
					<dim>512</dim>
					<dim>1</dim>
				</port>
			</input>
			<output>
				<port id="1" precision="FP32">
					<dim>1</dim>
					<dim>512</dim>
					<dim>1</dim>
				</port>
			</output>
		</layer>
		<layer id="110" name="351" type="Add" version="opset1">
			<data auto_broadcast="numpy" />
			<input>
				<port id="0" precision="FP32">
					<dim>1</dim>
					<dim>512</dim>
					<dim>16</dim>
				</port>
				<port id="1" precision="FP32">
					<dim>1</dim>
					<dim>512</dim>
					<dim>1</dim>
				</port>
			</input>
			<output>
				<port id="2" precision="FP32" names="351">
					<dim>1</dim>
					<dim>512</dim>
					<dim>16</dim>
				</port>
			</output>
		</layer>
		<layer id="111" name="Constant_478" type="Const" version="opset1">
			<data element_type="i64" shape="3" offset="1589442" size="24" />
			<output>
				<port id="0" precision="I64">
					<dim>3</dim>
				</port>
			</output>
		</layer>
		<layer id="112" name="353" type="Transpose" version="opset1">
			<input>
				<port id="0" precision="FP32">
					<dim>1</dim>
					<dim>512</dim>
					<dim>16</dim>
				</port>
				<port id="1" precision="I64">
					<dim>3</dim>
				</port>
			</input>
			<output>
				<port id="2" precision="FP32" names="353">
					<dim>1</dim>
					<dim>16</dim>
					<dim>512</dim>
				</port>
			</output>
		</layer>
		<layer id="113" name="355" type="Add" version="opset1">
			<data auto_broadcast="numpy" />
			<input>
				<port id="0" precision="FP32">
					<dim>1</dim>
					<dim>16</dim>
					<dim>512</dim>
				</port>
				<port id="1" precision="FP32">
					<dim>1</dim>
					<dim>16</dim>
					<dim>512</dim>
				</port>
			</input>
			<output>
				<port id="2" precision="FP32" names="355">
					<dim>1</dim>
					<dim>16</dim>
					<dim>512</dim>
				</port>
			</output>
		</layer>
		<layer id="114" name="Convert_503" type="Const" version="opset1">
			<data element_type="i64" shape="3" offset="16384" size="24" />
			<output>
				<port id="0" precision="I64">
					<dim>3</dim>
				</port>
			</output>
		</layer>
		<layer id="115" name="369" type="Tile" version="opset1">
			<input>
				<port id="0" precision="FP32">
					<dim>1</dim>
					<dim>16</dim>
					<dim>512</dim>
				</port>
				<port id="1" precision="I64">
					<dim>3</dim>
				</port>
			</input>
			<output>
				<port id="2" precision="FP32" names="369">
					<dim>8</dim>
					<dim>16</dim>
					<dim>512</dim>
				</port>
			</output>
		</layer>
		<layer id="116" name="372" type="Const" version="opset1">
			<data element_type="i64" shape="1" offset="16408" size="8" />
			<output>
				<port id="0" precision="I64" names="372">
					<dim>1</dim>
				</port>
			</output>
		</layer>
		<layer id="117" name="373" type="Const" version="opset1">
			<data element_type="i64" shape="1" offset="16416" size="8" />
			<output>
				<port id="0" precision="I64" names="373">
					<dim>1</dim>
				</port>
			</output>
		</layer>
		<layer id="118" name="366" type="ShapeOf" version="opset3">
			<data output_type="i64" />
			<input>
				<port id="0" precision="FP32">
					<dim>1</dim>
					<dim>16</dim>
					<dim>512</dim>
				</port>
			</input>
			<output>
				<port id="1" precision="I64" names="357,360,363,366">
					<dim>3</dim>
				</port>
			</output>
		</layer>
		<layer id="119" name="Constant_4163" type="Const" version="opset1">
			<data element_type="i64" shape="1" offset="16424" size="8" />
			<output>
				<port id="0" precision="I64">
					<dim>1</dim>
				</port>
			</output>
		</layer>
		<layer id="120" name="Constant_500" type="Const" version="opset1">
			<data element_type="i64" shape="" offset="16432" size="8" />
			<output>
				<port id="0" precision="I64" />
			</output>
		</layer>
		<layer id="121" name="367" type="Gather" version="opset8">
			<data batch_dims="0" />
			<input>
				<port id="0" precision="I64">
					<dim>3</dim>
				</port>
				<port id="1" precision="I64">
					<dim>1</dim>
				</port>
				<port id="2" precision="I64" />
			</input>
			<output>
				<port id="3" precision="I64" names="374">
					<dim>1</dim>
				</port>
			</output>
		</layer>
		<layer id="122" name="375" type="Concat" version="opset1">
			<data axis="0" />
			<input>
				<port id="0" precision="I64">
					<dim>1</dim>
				</port>
				<port id="1" precision="I64">
					<dim>1</dim>
				</port>
				<port id="2" precision="I64">
					<dim>1</dim>
				</port>
			</input>
			<output>
				<port id="3" precision="I64" names="375">
					<dim>3</dim>
				</port>
			</output>
		</layer>
		<layer id="123" name="376" type="Reshape" version="opset1">
			<data special_zero="true" />
			<input>
				<port id="0" precision="FP32">
					<dim>8</dim>
					<dim>16</dim>
					<dim>512</dim>
				</port>
				<port id="1" precision="I64">
					<dim>3</dim>
				</port>
			</input>
			<output>
				<port id="2" precision="FP32" names="376">
					<dim>8</dim>
					<dim>16</dim>
					<dim>512</dim>
				</port>
			</output>
		</layer>
		<layer id="124" name="225_compressed" type="Const" version="opset1">
			<data element_type="f16" shape="8, 512, 64" offset="3689690" size="524288" />
			<output>
				<port id="0" precision="FP16">
					<dim>8</dim>
					<dim>512</dim>
					<dim>64</dim>
				</port>
			</output>
		</layer>
		<layer id="125" name="225" type="Convert" version="opset1">
			<data destination_type="f32" />
			<rt_info>
				<attribute name="decompression" version="0" />
			</rt_info>
			<input>
				<port id="0" precision="FP16">
					<dim>8</dim>
					<dim>512</dim>
					<dim>64</dim>
				</port>
			</input>
			<output>
				<port id="1" precision="FP32" names="225">
					<dim>8</dim>
					<dim>512</dim>
					<dim>64</dim>
				</port>
			</output>
		</layer>
		<layer id="126" name="395" type="MatMul" version="opset1">
			<data transpose_a="false" transpose_b="false" />
			<input>
				<port id="0" precision="FP32">
					<dim>8</dim>
					<dim>16</dim>
					<dim>512</dim>
				</port>
				<port id="1" precision="FP32">
					<dim>8</dim>
					<dim>512</dim>
					<dim>64</dim>
				</port>
			</input>
			<output>
				<port id="2" precision="FP32" names="395">
					<dim>8</dim>
					<dim>16</dim>
					<dim>64</dim>
				</port>
			</output>
		</layer>
		<layer id="127" name="398" type="Const" version="opset1">
			<data element_type="i64" shape="1" offset="16416" size="8" />
			<output>
				<port id="0" precision="I64" names="398">
					<dim>1</dim>
				</port>
			</output>
		</layer>
		<layer id="128" name="Constant_4169" type="Const" version="opset1">
			<data element_type="i64" shape="1" offset="540728" size="8" />
			<output>
				<port id="0" precision="I64">
					<dim>1</dim>
				</port>
			</output>
		</layer>
		<layer id="129" name="Constant_488" type="Const" version="opset1">
			<data element_type="i64" shape="" offset="16432" size="8" />
			<output>
				<port id="0" precision="I64" />
			</output>
		</layer>
		<layer id="130" name="358" type="Gather" version="opset8">
			<data batch_dims="0" />
			<input>
				<port id="0" precision="I64">
					<dim>3</dim>
				</port>
				<port id="1" precision="I64">
					<dim>1</dim>
				</port>
				<port id="2" precision="I64" />
			</input>
			<output>
				<port id="3" precision="I64" names="399">
					<dim>1</dim>
				</port>
			</output>
		</layer>
		<layer id="131" name="400" type="Const" version="opset1">
			<data element_type="i64" shape="1" offset="540736" size="8" />
			<output>
				<port id="0" precision="I64" names="400">
					<dim>1</dim>
				</port>
			</output>
		</layer>
		<layer id="132" name="401" type="Concat" version="opset1">
			<data axis="0" />
			<input>
				<port id="0" precision="I64">
					<dim>1</dim>
				</port>
				<port id="1" precision="I64">
					<dim>1</dim>
				</port>
				<port id="2" precision="I64">
					<dim>1</dim>
				</port>
			</input>
			<output>
				<port id="3" precision="I64" names="401">
					<dim>3</dim>
				</port>
			</output>
		</layer>
		<layer id="133" name="402" type="Reshape" version="opset1">
			<data special_zero="true" />
			<input>
				<port id="0" precision="FP32">
					<dim>8</dim>
					<dim>16</dim>
					<dim>64</dim>
				</port>
				<port id="1" precision="I64">
					<dim>3</dim>
				</port>
			</input>
			<output>
				<port id="2" precision="FP32" names="402">
					<dim>8</dim>
					<dim>16</dim>
					<dim>64</dim>
				</port>
			</output>
		</layer>
		<layer id="134" name="Convert_527" type="Const" version="opset1">
			<data element_type="i64" shape="3" offset="16384" size="24" />
			<output>
				<port id="0" precision="I64">
					<dim>3</dim>
				</port>
			</output>
		</layer>
		<layer id="135" name="378" type="Tile" version="opset1">
			<input>
				<port id="0" precision="FP32">
					<dim>1</dim>
					<dim>16</dim>
					<dim>512</dim>
				</port>
				<port id="1" precision="I64">
					<dim>3</dim>
				</port>
			</input>
			<output>
				<port id="2" precision="FP32" names="378">
					<dim>8</dim>
					<dim>16</dim>
					<dim>512</dim>
				</port>
			</output>
		</layer>
		<layer id="136" name="381" type="Const" version="opset1">
			<data element_type="i64" shape="1" offset="16408" size="8" />
			<output>
				<port id="0" precision="I64" names="381">
					<dim>1</dim>
				</port>
			</output>
		</layer>
		<layer id="137" name="382" type="Const" version="opset1">
			<data element_type="i64" shape="1" offset="16416" size="8" />
			<output>
				<port id="0" precision="I64" names="382">
					<dim>1</dim>
				</port>
			</output>
		</layer>
		<layer id="138" name="Constant_4175" type="Const" version="opset1">
			<data element_type="i64" shape="1" offset="16424" size="8" />
			<output>
				<port id="0" precision="I64">
					<dim>1</dim>
				</port>
			</output>
		</layer>
		<layer id="139" name="3670" type="Gather" version="opset8">
			<data batch_dims="0" />
			<input>
				<port id="0" precision="I64">
					<dim>3</dim>
				</port>
				<port id="1" precision="I64">
					<dim>1</dim>
				</port>
				<port id="2" precision="I64" />
			</input>
			<output>
				<port id="3" precision="I64" names="383">
					<dim>1</dim>
				</port>
			</output>
		</layer>
		<layer id="140" name="384" type="Concat" version="opset1">
			<data axis="0" />
			<input>
				<port id="0" precision="I64">
					<dim>1</dim>
				</port>
				<port id="1" precision="I64">
					<dim>1</dim>
				</port>
				<port id="2" precision="I64">
					<dim>1</dim>
				</port>
			</input>
			<output>
				<port id="3" precision="I64" names="384">
					<dim>3</dim>
				</port>
			</output>
		</layer>
		<layer id="141" name="385" type="Reshape" version="opset1">
			<data special_zero="true" />
			<input>
				<port id="0" precision="FP32">
					<dim>8</dim>
					<dim>16</dim>
					<dim>512</dim>
				</port>
				<port id="1" precision="I64">
					<dim>3</dim>
				</port>
			</input>
			<output>
				<port id="2" precision="FP32" names="385">
					<dim>8</dim>
					<dim>16</dim>
					<dim>512</dim>
				</port>
			</output>
		</layer>
		<layer id="142" name="226_compressed" type="Const" version="opset1">
			<data element_type="f16" shape="8, 512, 64" offset="4213978" size="524288" />
			<output>
				<port id="0" precision="FP16">
					<dim>8</dim>
					<dim>512</dim>
					<dim>64</dim>
				</port>
			</output>
		</layer>
		<layer id="143" name="226" type="Convert" version="opset1">
			<data destination_type="f32" />
			<rt_info>
				<attribute name="decompression" version="0" />
			</rt_info>
			<input>
				<port id="0" precision="FP16">
					<dim>8</dim>
					<dim>512</dim>
					<dim>64</dim>
				</port>
			</input>
			<output>
				<port id="1" precision="FP32" names="226">
					<dim>8</dim>
					<dim>512</dim>
					<dim>64</dim>
				</port>
			</output>
		</layer>
		<layer id="144" name="403" type="MatMul" version="opset1">
			<data transpose_a="false" transpose_b="false" />
			<input>
				<port id="0" precision="FP32">
					<dim>8</dim>
					<dim>16</dim>
					<dim>512</dim>
				</port>
				<port id="1" precision="FP32">
					<dim>8</dim>
					<dim>512</dim>
					<dim>64</dim>
				</port>
			</input>
			<output>
				<port id="2" precision="FP32" names="403">
					<dim>8</dim>
					<dim>16</dim>
					<dim>64</dim>
				</port>
			</output>
		</layer>
		<layer id="145" name="406" type="Const" version="opset1">
			<data element_type="i64" shape="1" offset="16416" size="8" />
			<output>
				<port id="0" precision="I64" names="406">
					<dim>1</dim>
				</port>
			</output>
		</layer>
		<layer id="146" name="Constant_4181" type="Const" version="opset1">
			<data element_type="i64" shape="1" offset="540728" size="8" />
			<output>
				<port id="0" precision="I64">
					<dim>1</dim>
				</port>
			</output>
		</layer>
		<layer id="147" name="Constant_492" type="Const" version="opset1">
			<data element_type="i64" shape="" offset="16432" size="8" />
			<output>
				<port id="0" precision="I64" />
			</output>
		</layer>
		<layer id="148" name="361" type="Gather" version="opset8">
			<data batch_dims="0" />
			<input>
				<port id="0" precision="I64">
					<dim>3</dim>
				</port>
				<port id="1" precision="I64">
					<dim>1</dim>
				</port>
				<port id="2" precision="I64" />
			</input>
			<output>
				<port id="3" precision="I64" names="407">
					<dim>1</dim>
				</port>
			</output>
		</layer>
		<layer id="149" name="408" type="Const" version="opset1">
			<data element_type="i64" shape="1" offset="540736" size="8" />
			<output>
				<port id="0" precision="I64" names="408">
					<dim>1</dim>
				</port>
			</output>
		</layer>
		<layer id="150" name="409" type="Concat" version="opset1">
			<data axis="0" />
			<input>
				<port id="0" precision="I64">
					<dim>1</dim>
				</port>
				<port id="1" precision="I64">
					<dim>1</dim>
				</port>
				<port id="2" precision="I64">
					<dim>1</dim>
				</port>
			</input>
			<output>
				<port id="3" precision="I64" names="409">
					<dim>3</dim>
				</port>
			</output>
		</layer>
		<layer id="151" name="410" type="Reshape" version="opset1">
			<data special_zero="true" />
			<input>
				<port id="0" precision="FP32">
					<dim>8</dim>
					<dim>16</dim>
					<dim>64</dim>
				</port>
				<port id="1" precision="I64">
					<dim>3</dim>
				</port>
			</input>
			<output>
				<port id="2" precision="FP32" names="410">
					<dim>8</dim>
					<dim>16</dim>
					<dim>64</dim>
				</port>
			</output>
		</layer>
		<layer id="152" name="Constant_5110_compressed" type="Const" version="opset1">
			<data element_type="f16" shape="1, 1, 1" offset="1065032" size="2" />
			<output>
				<port id="0" precision="FP16">
					<dim>1</dim>
					<dim>1</dim>
					<dim>1</dim>
				</port>
			</output>
		</layer>
		<layer id="153" name="Constant_5110" type="Convert" version="opset1">
			<data destination_type="f32" />
			<rt_info>
				<attribute name="decompression" version="0" />
			</rt_info>
			<input>
				<port id="0" precision="FP16">
					<dim>1</dim>
					<dim>1</dim>
					<dim>1</dim>
				</port>
			</input>
			<output>
				<port id="1" precision="FP32">
					<dim>1</dim>
					<dim>1</dim>
					<dim>1</dim>
				</port>
			</output>
		</layer>
		<layer id="154" name="Multiply_4950" type="Multiply" version="opset1">
			<data auto_broadcast="numpy" />
			<input>
				<port id="0" precision="FP32">
					<dim>8</dim>
					<dim>16</dim>
					<dim>64</dim>
				</port>
				<port id="1" precision="FP32">
					<dim>1</dim>
					<dim>1</dim>
					<dim>1</dim>
				</port>
			</input>
			<output>
				<port id="2" precision="FP32">
					<dim>8</dim>
					<dim>16</dim>
					<dim>64</dim>
				</port>
			</output>
		</layer>
		<layer id="155" name="422" type="MatMul" version="opset1">
			<data transpose_a="false" transpose_b="true" />
			<input>
				<port id="0" precision="FP32">
					<dim>8</dim>
					<dim>16</dim>
					<dim>64</dim>
				</port>
				<port id="1" precision="FP32">
					<dim>8</dim>
					<dim>16</dim>
					<dim>64</dim>
				</port>
			</input>
			<output>
				<port id="2" precision="FP32" names="422">
					<dim>8</dim>
					<dim>16</dim>
					<dim>16</dim>
				</port>
			</output>
		</layer>
		<layer id="156" name="424" type="ShapeOf" version="opset3">
			<data output_type="i64" />
			<input>
				<port id="0" precision="FP32">
					<dim>8</dim>
					<dim>16</dim>
					<dim>16</dim>
				</port>
			</input>
			<output>
				<port id="1" precision="I64" names="424,427">
					<dim>3</dim>
				</port>
			</output>
		</layer>
		<layer id="157" name="423" type="Const" version="opset1">
			<data element_type="i64" shape="" offset="16432" size="8" />
			<output>
				<port id="0" precision="I64" names="423" />
			</output>
		</layer>
		<layer id="158" name="Constant_620" type="Const" version="opset1">
			<data element_type="i64" shape="" offset="16432" size="8" />
			<output>
				<port id="0" precision="I64" />
			</output>
		</layer>
		<layer id="159" name="425" type="Gather" version="opset8">
			<data batch_dims="0" />
			<input>
				<port id="0" precision="I64">
					<dim>3</dim>
				</port>
				<port id="1" precision="I64" />
				<port id="2" precision="I64" />
			</input>
			<output>
				<port id="3" precision="I64" names="425" />
			</output>
		</layer>
		<layer id="160" name="426" type="Const" version="opset1">
			<data element_type="i64" shape="" offset="540728" size="8" />
			<output>
				<port id="0" precision="I64" names="426" />
			</output>
		</layer>
		<layer id="161" name="Constant_624" type="Const" version="opset1">
			<data element_type="i64" shape="" offset="16432" size="8" />
			<output>
				<port id="0" precision="I64" />
			</output>
		</layer>
		<layer id="162" name="428" type="Gather" version="opset8">
			<data batch_dims="0" />
			<input>
				<port id="0" precision="I64">
					<dim>3</dim>
				</port>
				<port id="1" precision="I64" />
				<port id="2" precision="I64" />
			</input>
			<output>
				<port id="3" precision="I64" names="428" />
			</output>
		</layer>
		<layer id="163" name="429" type="Multiply" version="opset1">
			<data auto_broadcast="numpy" />
			<input>
				<port id="0" precision="I64" />
				<port id="1" precision="I64" />
			</input>
			<output>
				<port id="2" precision="I64" names="429" />
			</output>
		</layer>
		<layer id="164" name="Constant_628" type="Const" version="opset1">
			<data element_type="i64" shape="1" offset="16432" size="8" />
			<output>
				<port id="0" precision="I64">
					<dim>1</dim>
				</port>
			</output>
		</layer>
		<layer id="165" name="431" type="Unsqueeze" version="opset1">
			<input>
				<port id="0" precision="I64" />
				<port id="1" precision="I64">
					<dim>1</dim>
				</port>
			</input>
			<output>
				<port id="2" precision="I64" names="431">
					<dim>1</dim>
				</port>
			</output>
		</layer>
		<layer id="166" name="432" type="Const" version="opset1">
			<data element_type="i64" shape="1" offset="16416" size="8" />
			<output>
				<port id="0" precision="I64" names="432">
					<dim>1</dim>
				</port>
			</output>
		</layer>
		<layer id="167" name="433" type="Concat" version="opset1">
			<data axis="0" />
			<input>
				<port id="0" precision="I64">
					<dim>1</dim>
				</port>
				<port id="1" precision="I64">
					<dim>1</dim>
				</port>
			</input>
			<output>
				<port id="2" precision="I64" names="433">
					<dim>2</dim>
				</port>
			</output>
		</layer>
		<layer id="168" name="434" type="Reshape" version="opset1">
			<data special_zero="true" />
			<input>
				<port id="0" precision="FP32">
					<dim>8</dim>
					<dim>16</dim>
					<dim>16</dim>
				</port>
				<port id="1" precision="I64">
					<dim>2</dim>
				</port>
			</input>
			<output>
				<port id="2" precision="FP32" names="434">
					<dim>128</dim>
					<dim>16</dim>
				</port>
			</output>
		</layer>
		<layer id="169" name="Constant_636" type="Const" version="opset1">
			<data element_type="i64" shape="2" offset="1065034" size="16" />
			<output>
				<port id="0" precision="I64">
					<dim>2</dim>
				</port>
			</output>
		</layer>
		<layer id="170" name="Reshape_637" type="Reshape" version="opset1">
			<data special_zero="true" />
			<input>
				<port id="0" precision="FP32">
					<dim>128</dim>
					<dim>16</dim>
				</port>
				<port id="1" precision="I64">
					<dim>2</dim>
				</port>
			</input>
			<output>
				<port id="2" precision="FP32">
					<dim>128</dim>
					<dim>16</dim>
				</port>
			</output>
		</layer>
		<layer id="171" name="Softmax_640" type="SoftMax" version="opset8">
			<data axis="1" />
			<input>
				<port id="0" precision="FP32">
					<dim>128</dim>
					<dim>16</dim>
				</port>
			</input>
			<output>
				<port id="1" precision="FP32">
					<dim>128</dim>
					<dim>16</dim>
				</port>
			</output>
		</layer>
		<layer id="172" name="ShapeOf_641" type="ShapeOf" version="opset3">
			<data output_type="i64" />
			<input>
				<port id="0" precision="FP32">
					<dim>128</dim>
					<dim>16</dim>
				</port>
			</input>
			<output>
				<port id="1" precision="I64">
					<dim>2</dim>
				</port>
			</output>
		</layer>
		<layer id="173" name="435" type="Reshape" version="opset1">
			<data special_zero="false" />
			<input>
				<port id="0" precision="FP32">
					<dim>128</dim>
					<dim>16</dim>
				</port>
				<port id="1" precision="I64">
					<dim>2</dim>
				</port>
			</input>
			<output>
				<port id="2" precision="FP32" names="435">
					<dim>128</dim>
					<dim>16</dim>
				</port>
			</output>
		</layer>
		<layer id="174" name="Constant_4309" type="Const" version="opset1">
			<data element_type="i64" shape="2" offset="1065050" size="16" />
			<output>
				<port id="0" precision="I64">
					<dim>2</dim>
				</port>
			</output>
		</layer>
		<layer id="175" name="Constant_4310" type="Const" version="opset1">
			<data element_type="i64" shape="" offset="16432" size="8" />
			<output>
				<port id="0" precision="I64" />
			</output>
		</layer>
		<layer id="176" name="Gather_4311" type="Gather" version="opset8">
			<data batch_dims="0" />
			<input>
				<port id="0" precision="I64">
					<dim>3</dim>
				</port>
				<port id="1" precision="I64">
					<dim>2</dim>
				</port>
				<port id="2" precision="I64" />
			</input>
			<output>
				<port id="3" precision="I64">
					<dim>2</dim>
				</port>
			</output>
		</layer>
		<layer id="177" name="439" type="Const" version="opset1">
			<data element_type="i64" shape="1" offset="16416" size="8" />
			<output>
				<port id="0" precision="I64" names="439">
					<dim>1</dim>
				</port>
			</output>
		</layer>
		<layer id="178" name="440" type="Concat" version="opset1">
			<data axis="0" />
			<input>
				<port id="0" precision="I64">
					<dim>2</dim>
				</port>
				<port id="1" precision="I64">
					<dim>1</dim>
				</port>
			</input>
			<output>
				<port id="2" precision="I64" names="440">
					<dim>3</dim>
				</port>
			</output>
		</layer>
		<layer id="179" name="442" type="Reshape" version="opset1">
			<data special_zero="true" />
			<input>
				<port id="0" precision="FP32">
					<dim>128</dim>
					<dim>16</dim>
				</port>
				<port id="1" precision="I64">
					<dim>3</dim>
				</port>
			</input>
			<output>
				<port id="2" precision="FP32" names="442">
					<dim>8</dim>
					<dim>16</dim>
					<dim>16</dim>
				</port>
			</output>
		</layer>
		<layer id="180" name="Convert_551" type="Const" version="opset1">
			<data element_type="i64" shape="3" offset="16384" size="24" />
			<output>
				<port id="0" precision="I64">
					<dim>3</dim>
				</port>
			</output>
		</layer>
		<layer id="181" name="387" type="Tile" version="opset1">
			<input>
				<port id="0" precision="FP32">
					<dim>1</dim>
					<dim>16</dim>
					<dim>512</dim>
				</port>
				<port id="1" precision="I64">
					<dim>3</dim>
				</port>
			</input>
			<output>
				<port id="2" precision="FP32" names="387">
					<dim>8</dim>
					<dim>16</dim>
					<dim>512</dim>
				</port>
			</output>
		</layer>
		<layer id="182" name="390" type="Const" version="opset1">
			<data element_type="i64" shape="1" offset="16408" size="8" />
			<output>
				<port id="0" precision="I64" names="390">
					<dim>1</dim>
				</port>
			</output>
		</layer>
		<layer id="183" name="391" type="Const" version="opset1">
			<data element_type="i64" shape="1" offset="16416" size="8" />
			<output>
				<port id="0" precision="I64" names="391">
					<dim>1</dim>
				</port>
			</output>
		</layer>
		<layer id="184" name="Constant_4199" type="Const" version="opset1">
			<data element_type="i64" shape="1" offset="16424" size="8" />
			<output>
				<port id="0" precision="I64">
					<dim>1</dim>
				</port>
			</output>
		</layer>
		<layer id="185" name="3671" type="Gather" version="opset8">
			<data batch_dims="0" />
			<input>
				<port id="0" precision="I64">
					<dim>3</dim>
				</port>
				<port id="1" precision="I64">
					<dim>1</dim>
				</port>
				<port id="2" precision="I64" />
			</input>
			<output>
				<port id="3" precision="I64" names="392">
					<dim>1</dim>
				</port>
			</output>
		</layer>
		<layer id="186" name="393" type="Concat" version="opset1">
			<data axis="0" />
			<input>
				<port id="0" precision="I64">
					<dim>1</dim>
				</port>
				<port id="1" precision="I64">
					<dim>1</dim>
				</port>
				<port id="2" precision="I64">
					<dim>1</dim>
				</port>
			</input>
			<output>
				<port id="3" precision="I64" names="393">
					<dim>3</dim>
				</port>
			</output>
		</layer>
		<layer id="187" name="394" type="Reshape" version="opset1">
			<data special_zero="true" />
			<input>
				<port id="0" precision="FP32">
					<dim>8</dim>
					<dim>16</dim>
					<dim>512</dim>
				</port>
				<port id="1" precision="I64">
					<dim>3</dim>
				</port>
			</input>
			<output>
				<port id="2" precision="FP32" names="394">
					<dim>8</dim>
					<dim>16</dim>
					<dim>512</dim>
				</port>
			</output>
		</layer>
		<layer id="188" name="227_compressed" type="Const" version="opset1">
			<data element_type="f16" shape="8, 512, 64" offset="4738266" size="524288" />
			<output>
				<port id="0" precision="FP16">
					<dim>8</dim>
					<dim>512</dim>
					<dim>64</dim>
				</port>
			</output>
		</layer>
		<layer id="189" name="227" type="Convert" version="opset1">
			<data destination_type="f32" />
			<rt_info>
				<attribute name="decompression" version="0" />
			</rt_info>
			<input>
				<port id="0" precision="FP16">
					<dim>8</dim>
					<dim>512</dim>
					<dim>64</dim>
				</port>
			</input>
			<output>
				<port id="1" precision="FP32" names="227">
					<dim>8</dim>
					<dim>512</dim>
					<dim>64</dim>
				</port>
			</output>
		</layer>
		<layer id="190" name="411" type="MatMul" version="opset1">
			<data transpose_a="false" transpose_b="false" />
			<input>
				<port id="0" precision="FP32">
					<dim>8</dim>
					<dim>16</dim>
					<dim>512</dim>
				</port>
				<port id="1" precision="FP32">
					<dim>8</dim>
					<dim>512</dim>
					<dim>64</dim>
				</port>
			</input>
			<output>
				<port id="2" precision="FP32" names="411">
					<dim>8</dim>
					<dim>16</dim>
					<dim>64</dim>
				</port>
			</output>
		</layer>
		<layer id="191" name="414" type="Const" version="opset1">
			<data element_type="i64" shape="1" offset="16416" size="8" />
			<output>
				<port id="0" precision="I64" names="414">
					<dim>1</dim>
				</port>
			</output>
		</layer>
		<layer id="192" name="Constant_4205" type="Const" version="opset1">
			<data element_type="i64" shape="1" offset="540728" size="8" />
			<output>
				<port id="0" precision="I64">
					<dim>1</dim>
				</port>
			</output>
		</layer>
		<layer id="193" name="Constant_496" type="Const" version="opset1">
			<data element_type="i64" shape="" offset="16432" size="8" />
			<output>
				<port id="0" precision="I64" />
			</output>
		</layer>
		<layer id="194" name="364" type="Gather" version="opset8">
			<data batch_dims="0" />
			<input>
				<port id="0" precision="I64">
					<dim>3</dim>
				</port>
				<port id="1" precision="I64">
					<dim>1</dim>
				</port>
				<port id="2" precision="I64" />
			</input>
			<output>
				<port id="3" precision="I64" names="415">
					<dim>1</dim>
				</port>
			</output>
		</layer>
		<layer id="195" name="416" type="Const" version="opset1">
			<data element_type="i64" shape="1" offset="540736" size="8" />
			<output>
				<port id="0" precision="I64" names="416">
					<dim>1</dim>
				</port>
			</output>
		</layer>
		<layer id="196" name="417" type="Concat" version="opset1">
			<data axis="0" />
			<input>
				<port id="0" precision="I64">
					<dim>1</dim>
				</port>
				<port id="1" precision="I64">
					<dim>1</dim>
				</port>
				<port id="2" precision="I64">
					<dim>1</dim>
				</port>
			</input>
			<output>
				<port id="3" precision="I64" names="417">
					<dim>3</dim>
				</port>
			</output>
		</layer>
		<layer id="197" name="418" type="Reshape" version="opset1">
			<data special_zero="true" />
			<input>
				<port id="0" precision="FP32">
					<dim>8</dim>
					<dim>16</dim>
					<dim>64</dim>
				</port>
				<port id="1" precision="I64">
					<dim>3</dim>
				</port>
			</input>
			<output>
				<port id="2" precision="FP32" names="418">
					<dim>8</dim>
					<dim>16</dim>
					<dim>64</dim>
				</port>
			</output>
		</layer>
		<layer id="198" name="444" type="MatMul" version="opset1">
			<data transpose_a="false" transpose_b="false" />
			<input>
				<port id="0" precision="FP32">
					<dim>8</dim>
					<dim>16</dim>
					<dim>16</dim>
				</port>
				<port id="1" precision="FP32">
					<dim>8</dim>
					<dim>16</dim>
					<dim>64</dim>
				</port>
			</input>
			<output>
				<port id="2" precision="FP32" names="444">
					<dim>8</dim>
					<dim>16</dim>
					<dim>64</dim>
				</port>
			</output>
		</layer>
		<layer id="199" name="445" type="Const" version="opset1">
			<data element_type="i64" shape="4" offset="1589354" size="32" />
			<output>
				<port id="0" precision="I64" names="445">
					<dim>4</dim>
				</port>
			</output>
		</layer>
		<layer id="200" name="446" type="Reshape" version="opset1">
			<data special_zero="true" />
			<input>
				<port id="0" precision="FP32">
					<dim>8</dim>
					<dim>16</dim>
					<dim>64</dim>
				</port>
				<port id="1" precision="I64">
					<dim>4</dim>
				</port>
			</input>
			<output>
				<port id="2" precision="FP32" names="446">
					<dim>8</dim>
					<dim>1</dim>
					<dim>16</dim>
					<dim>64</dim>
				</port>
			</output>
		</layer>
		<layer id="201" name="Constant_666" type="Const" version="opset1">
			<data element_type="i64" shape="4" offset="1589386" size="32" />
			<output>
				<port id="0" precision="I64">
					<dim>4</dim>
				</port>
			</output>
		</layer>
		<layer id="202" name="447" type="Transpose" version="opset1">
			<input>
				<port id="0" precision="FP32">
					<dim>8</dim>
					<dim>1</dim>
					<dim>16</dim>
					<dim>64</dim>
				</port>
				<port id="1" precision="I64">
					<dim>4</dim>
				</port>
			</input>
			<output>
				<port id="2" precision="FP32" names="447">
					<dim>1</dim>
					<dim>16</dim>
					<dim>8</dim>
					<dim>64</dim>
				</port>
			</output>
		</layer>
		<layer id="203" name="448" type="Const" version="opset1">
			<data element_type="i64" shape="3" offset="1589418" size="24" />
			<output>
				<port id="0" precision="I64" names="448">
					<dim>3</dim>
				</port>
			</output>
		</layer>
		<layer id="204" name="450" type="Reshape" version="opset1">
			<data special_zero="true" />
			<input>
				<port id="0" precision="FP32">
					<dim>1</dim>
					<dim>16</dim>
					<dim>8</dim>
					<dim>64</dim>
				</port>
				<port id="1" precision="I64">
					<dim>3</dim>
				</port>
			</input>
			<output>
				<port id="2" precision="FP32" names="450">
					<dim>1</dim>
					<dim>16</dim>
					<dim>512</dim>
				</port>
			</output>
		</layer>
		<layer id="205" name="452" type="Add" version="opset1">
			<data auto_broadcast="numpy" />
			<input>
				<port id="0" precision="FP32">
					<dim>1</dim>
					<dim>16</dim>
					<dim>512</dim>
				</port>
				<port id="1" precision="FP32">
					<dim>1</dim>
					<dim>16</dim>
					<dim>512</dim>
				</port>
			</input>
			<output>
				<port id="2" precision="FP32" names="452">
					<dim>1</dim>
					<dim>16</dim>
					<dim>512</dim>
				</port>
			</output>
		</layer>
		<layer id="206" name="Constant_678" type="Const" version="opset1">
			<data element_type="i64" shape="3" offset="1589442" size="24" />
			<output>
				<port id="0" precision="I64">
					<dim>3</dim>
				</port>
			</output>
		</layer>
		<layer id="207" name="453" type="Transpose" version="opset1">
			<input>
				<port id="0" precision="FP32">
					<dim>1</dim>
					<dim>16</dim>
					<dim>512</dim>
				</port>
				<port id="1" precision="I64">
					<dim>3</dim>
				</port>
			</input>
			<output>
				<port id="2" precision="FP32" names="453">
					<dim>1</dim>
					<dim>512</dim>
					<dim>16</dim>
				</port>
			</output>
		</layer>
		<layer id="208" name="228_compressed" type="Const" version="opset1">
			<data element_type="f16" shape="1024, 512, 1" offset="5262554" size="1048576" />
			<output>
				<port id="0" precision="FP16">
					<dim>1024</dim>
					<dim>512</dim>
					<dim>1</dim>
				</port>
			</output>
		</layer>
		<layer id="209" name="228" type="Convert" version="opset1">
			<data destination_type="f32" />
			<rt_info>
				<attribute name="decompression" version="0" />
			</rt_info>
			<input>
				<port id="0" precision="FP16">
					<dim>1024</dim>
					<dim>512</dim>
					<dim>1</dim>
				</port>
			</input>
			<output>
				<port id="1" precision="FP32" names="228">
					<dim>1024</dim>
					<dim>512</dim>
					<dim>1</dim>
				</port>
			</output>
		</layer>
		<layer id="210" name="454/WithoutBiases" type="Convolution" version="opset1">
			<data strides="1" dilations="1" pads_begin="0" pads_end="0" auto_pad="explicit" />
			<input>
				<port id="0" precision="FP32">
					<dim>1</dim>
					<dim>512</dim>
					<dim>16</dim>
				</port>
				<port id="1" precision="FP32">
					<dim>1024</dim>
					<dim>512</dim>
					<dim>1</dim>
				</port>
			</input>
			<output>
				<port id="2" precision="FP32">
					<dim>1</dim>
					<dim>1024</dim>
					<dim>16</dim>
				</port>
			</output>
		</layer>
		<layer id="211" name="Reshape_691_compressed" type="Const" version="opset1">
			<data element_type="f16" shape="1, 1024, 1" offset="6311130" size="2048" />
			<output>
				<port id="0" precision="FP16">
					<dim>1</dim>
					<dim>1024</dim>
					<dim>1</dim>
				</port>
			</output>
		</layer>
		<layer id="212" name="Reshape_691" type="Convert" version="opset1">
			<data destination_type="f32" />
			<rt_info>
				<attribute name="decompression" version="0" />
			</rt_info>
			<input>
				<port id="0" precision="FP16">
					<dim>1</dim>
					<dim>1024</dim>
					<dim>1</dim>
				</port>
			</input>
			<output>
				<port id="1" precision="FP32">
					<dim>1</dim>
					<dim>1024</dim>
					<dim>1</dim>
				</port>
			</output>
		</layer>
		<layer id="213" name="454" type="Add" version="opset1">
			<data auto_broadcast="numpy" />
			<input>
				<port id="0" precision="FP32">
					<dim>1</dim>
					<dim>1024</dim>
					<dim>16</dim>
				</port>
				<port id="1" precision="FP32">
					<dim>1</dim>
					<dim>1024</dim>
					<dim>1</dim>
				</port>
			</input>
			<output>
				<port id="2" precision="FP32" names="454">
					<dim>1</dim>
					<dim>1024</dim>
					<dim>16</dim>
				</port>
			</output>
		</layer>
		<layer id="214" name="455" type="ReLU" version="opset1">
			<input>
				<port id="0" precision="FP32">
					<dim>1</dim>
					<dim>1024</dim>
					<dim>16</dim>
				</port>
			</input>
			<output>
				<port id="1" precision="FP32" names="455">
					<dim>1</dim>
					<dim>1024</dim>
					<dim>16</dim>
				</port>
			</output>
		</layer>
		<layer id="215" name="230_compressed" type="Const" version="opset1">
			<data element_type="f16" shape="512, 1024, 1" offset="6313178" size="1048576" />
			<output>
				<port id="0" precision="FP16">
					<dim>512</dim>
					<dim>1024</dim>
					<dim>1</dim>
				</port>
			</output>
		</layer>
		<layer id="216" name="230" type="Convert" version="opset1">
			<data destination_type="f32" />
			<rt_info>
				<attribute name="decompression" version="0" />
			</rt_info>
			<input>
				<port id="0" precision="FP16">
					<dim>512</dim>
					<dim>1024</dim>
					<dim>1</dim>
				</port>
			</input>
			<output>
				<port id="1" precision="FP32" names="230">
					<dim>512</dim>
					<dim>1024</dim>
					<dim>1</dim>
				</port>
			</output>
		</layer>
		<layer id="217" name="456/WithoutBiases" type="Convolution" version="opset1">
			<data strides="1" dilations="1" pads_begin="0" pads_end="0" auto_pad="explicit" />
			<input>
				<port id="0" precision="FP32">
					<dim>1</dim>
					<dim>1024</dim>
					<dim>16</dim>
				</port>
				<port id="1" precision="FP32">
					<dim>512</dim>
					<dim>1024</dim>
					<dim>1</dim>
				</port>
			</input>
			<output>
				<port id="2" precision="FP32">
					<dim>1</dim>
					<dim>512</dim>
					<dim>16</dim>
				</port>
			</output>
		</layer>
		<layer id="218" name="Reshape_707_compressed" type="Const" version="opset1">
			<data element_type="f16" shape="1, 512, 1" offset="7361754" size="1024" />
			<output>
				<port id="0" precision="FP16">
					<dim>1</dim>
					<dim>512</dim>
					<dim>1</dim>
				</port>
			</output>
		</layer>
		<layer id="219" name="Reshape_707" type="Convert" version="opset1">
			<data destination_type="f32" />
			<rt_info>
				<attribute name="decompression" version="0" />
			</rt_info>
			<input>
				<port id="0" precision="FP16">
					<dim>1</dim>
					<dim>512</dim>
					<dim>1</dim>
				</port>
			</input>
			<output>
				<port id="1" precision="FP32">
					<dim>1</dim>
					<dim>512</dim>
					<dim>1</dim>
				</port>
			</output>
		</layer>
		<layer id="220" name="456" type="Add" version="opset1">
			<data auto_broadcast="numpy" />
			<input>
				<port id="0" precision="FP32">
					<dim>1</dim>
					<dim>512</dim>
					<dim>16</dim>
				</port>
				<port id="1" precision="FP32">
					<dim>1</dim>
					<dim>512</dim>
					<dim>1</dim>
				</port>
			</input>
			<output>
				<port id="2" precision="FP32" names="456">
					<dim>1</dim>
					<dim>512</dim>
					<dim>16</dim>
				</port>
			</output>
		</layer>
		<layer id="221" name="Constant_711" type="Const" version="opset1">
			<data element_type="i64" shape="3" offset="1589442" size="24" />
			<output>
				<port id="0" precision="I64">
					<dim>3</dim>
				</port>
			</output>
		</layer>
		<layer id="222" name="458" type="Transpose" version="opset1">
			<input>
				<port id="0" precision="FP32">
					<dim>1</dim>
					<dim>512</dim>
					<dim>16</dim>
				</port>
				<port id="1" precision="I64">
					<dim>3</dim>
				</port>
			</input>
			<output>
				<port id="2" precision="FP32" names="458">
					<dim>1</dim>
					<dim>16</dim>
					<dim>512</dim>
				</port>
			</output>
		</layer>
		<layer id="223" name="460" type="Add" version="opset1">
			<data auto_broadcast="numpy" />
			<input>
				<port id="0" precision="FP32">
					<dim>1</dim>
					<dim>16</dim>
					<dim>512</dim>
				</port>
				<port id="1" precision="FP32">
					<dim>1</dim>
					<dim>16</dim>
					<dim>512</dim>
				</port>
			</input>
			<output>
				<port id="2" precision="FP32" names="460">
					<dim>1</dim>
					<dim>16</dim>
					<dim>512</dim>
				</port>
			</output>
		</layer>
		<layer id="224" name="Convert_736" type="Const" version="opset1">
			<data element_type="i64" shape="3" offset="16384" size="24" />
			<output>
				<port id="0" precision="I64">
					<dim>3</dim>
				</port>
			</output>
		</layer>
		<layer id="225" name="474" type="Tile" version="opset1">
			<input>
				<port id="0" precision="FP32">
					<dim>1</dim>
					<dim>16</dim>
					<dim>512</dim>
				</port>
				<port id="1" precision="I64">
					<dim>3</dim>
				</port>
			</input>
			<output>
				<port id="2" precision="FP32" names="474">
					<dim>8</dim>
					<dim>16</dim>
					<dim>512</dim>
				</port>
			</output>
		</layer>
		<layer id="226" name="477" type="Const" version="opset1">
			<data element_type="i64" shape="1" offset="16408" size="8" />
			<output>
				<port id="0" precision="I64" names="477">
					<dim>1</dim>
				</port>
			</output>
		</layer>
		<layer id="227" name="478" type="Const" version="opset1">
			<data element_type="i64" shape="1" offset="16416" size="8" />
			<output>
				<port id="0" precision="I64" names="478">
					<dim>1</dim>
				</port>
			</output>
		</layer>
		<layer id="228" name="471" type="ShapeOf" version="opset3">
			<data output_type="i64" />
			<input>
				<port id="0" precision="FP32">
					<dim>1</dim>
					<dim>16</dim>
					<dim>512</dim>
				</port>
			</input>
			<output>
				<port id="1" precision="I64" names="462,465,468,471">
					<dim>3</dim>
				</port>
			</output>
		</layer>
		<layer id="229" name="Constant_4211" type="Const" version="opset1">
			<data element_type="i64" shape="1" offset="16424" size="8" />
			<output>
				<port id="0" precision="I64">
					<dim>1</dim>
				</port>
			</output>
		</layer>
		<layer id="230" name="Constant_733" type="Const" version="opset1">
			<data element_type="i64" shape="" offset="16432" size="8" />
			<output>
				<port id="0" precision="I64" />
			</output>
		</layer>
		<layer id="231" name="472" type="Gather" version="opset8">
			<data batch_dims="0" />
			<input>
				<port id="0" precision="I64">
					<dim>3</dim>
				</port>
				<port id="1" precision="I64">
					<dim>1</dim>
				</port>
				<port id="2" precision="I64" />
			</input>
			<output>
				<port id="3" precision="I64" names="479">
					<dim>1</dim>
				</port>
			</output>
		</layer>
		<layer id="232" name="480" type="Concat" version="opset1">
			<data axis="0" />
			<input>
				<port id="0" precision="I64">
					<dim>1</dim>
				</port>
				<port id="1" precision="I64">
					<dim>1</dim>
				</port>
				<port id="2" precision="I64">
					<dim>1</dim>
				</port>
			</input>
			<output>
				<port id="3" precision="I64" names="480">
					<dim>3</dim>
				</port>
			</output>
		</layer>
		<layer id="233" name="481" type="Reshape" version="opset1">
			<data special_zero="true" />
			<input>
				<port id="0" precision="FP32">
					<dim>8</dim>
					<dim>16</dim>
					<dim>512</dim>
				</port>
				<port id="1" precision="I64">
					<dim>3</dim>
				</port>
			</input>
			<output>
				<port id="2" precision="FP32" names="481">
					<dim>8</dim>
					<dim>16</dim>
					<dim>512</dim>
				</port>
			</output>
		</layer>
		<layer id="234" name="232_compressed" type="Const" version="opset1">
			<data element_type="f16" shape="8, 512, 64" offset="7362778" size="524288" />
			<output>
				<port id="0" precision="FP16">
					<dim>8</dim>
					<dim>512</dim>
					<dim>64</dim>
				</port>
			</output>
		</layer>
		<layer id="235" name="232" type="Convert" version="opset1">
			<data destination_type="f32" />
			<rt_info>
				<attribute name="decompression" version="0" />
			</rt_info>
			<input>
				<port id="0" precision="FP16">
					<dim>8</dim>
					<dim>512</dim>
					<dim>64</dim>
				</port>
			</input>
			<output>
				<port id="1" precision="FP32" names="232">
					<dim>8</dim>
					<dim>512</dim>
					<dim>64</dim>
				</port>
			</output>
		</layer>
		<layer id="236" name="500" type="MatMul" version="opset1">
			<data transpose_a="false" transpose_b="false" />
			<input>
				<port id="0" precision="FP32">
					<dim>8</dim>
					<dim>16</dim>
					<dim>512</dim>
				</port>
				<port id="1" precision="FP32">
					<dim>8</dim>
					<dim>512</dim>
					<dim>64</dim>
				</port>
			</input>
			<output>
				<port id="2" precision="FP32" names="500">
					<dim>8</dim>
					<dim>16</dim>
					<dim>64</dim>
				</port>
			</output>
		</layer>
		<layer id="237" name="503" type="Const" version="opset1">
			<data element_type="i64" shape="1" offset="16416" size="8" />
			<output>
				<port id="0" precision="I64" names="503">
					<dim>1</dim>
				</port>
			</output>
		</layer>
		<layer id="238" name="Constant_4217" type="Const" version="opset1">
			<data element_type="i64" shape="1" offset="540728" size="8" />
			<output>
				<port id="0" precision="I64">
					<dim>1</dim>
				</port>
			</output>
		</layer>
		<layer id="239" name="Constant_721" type="Const" version="opset1">
			<data element_type="i64" shape="" offset="16432" size="8" />
			<output>
				<port id="0" precision="I64" />
			</output>
		</layer>
		<layer id="240" name="463" type="Gather" version="opset8">
			<data batch_dims="0" />
			<input>
				<port id="0" precision="I64">
					<dim>3</dim>
				</port>
				<port id="1" precision="I64">
					<dim>1</dim>
				</port>
				<port id="2" precision="I64" />
			</input>
			<output>
				<port id="3" precision="I64" names="504">
					<dim>1</dim>
				</port>
			</output>
		</layer>
		<layer id="241" name="505" type="Const" version="opset1">
			<data element_type="i64" shape="1" offset="540736" size="8" />
			<output>
				<port id="0" precision="I64" names="505">
					<dim>1</dim>
				</port>
			</output>
		</layer>
		<layer id="242" name="506" type="Concat" version="opset1">
			<data axis="0" />
			<input>
				<port id="0" precision="I64">
					<dim>1</dim>
				</port>
				<port id="1" precision="I64">
					<dim>1</dim>
				</port>
				<port id="2" precision="I64">
					<dim>1</dim>
				</port>
			</input>
			<output>
				<port id="3" precision="I64" names="506">
					<dim>3</dim>
				</port>
			</output>
		</layer>
		<layer id="243" name="507" type="Reshape" version="opset1">
			<data special_zero="true" />
			<input>
				<port id="0" precision="FP32">
					<dim>8</dim>
					<dim>16</dim>
					<dim>64</dim>
				</port>
				<port id="1" precision="I64">
					<dim>3</dim>
				</port>
			</input>
			<output>
				<port id="2" precision="FP32" names="507">
					<dim>8</dim>
					<dim>16</dim>
					<dim>64</dim>
				</port>
			</output>
		</layer>
		<layer id="244" name="Convert_760" type="Const" version="opset1">
			<data element_type="i64" shape="3" offset="16384" size="24" />
			<output>
				<port id="0" precision="I64">
					<dim>3</dim>
				</port>
			</output>
		</layer>
		<layer id="245" name="483" type="Tile" version="opset1">
			<input>
				<port id="0" precision="FP32">
					<dim>1</dim>
					<dim>16</dim>
					<dim>512</dim>
				</port>
				<port id="1" precision="I64">
					<dim>3</dim>
				</port>
			</input>
			<output>
				<port id="2" precision="FP32" names="483">
					<dim>8</dim>
					<dim>16</dim>
					<dim>512</dim>
				</port>
			</output>
		</layer>
		<layer id="246" name="486" type="Const" version="opset1">
			<data element_type="i64" shape="1" offset="16408" size="8" />
			<output>
				<port id="0" precision="I64" names="486">
					<dim>1</dim>
				</port>
			</output>
		</layer>
		<layer id="247" name="487" type="Const" version="opset1">
			<data element_type="i64" shape="1" offset="16416" size="8" />
			<output>
				<port id="0" precision="I64" names="487">
					<dim>1</dim>
				</port>
			</output>
		</layer>
		<layer id="248" name="Constant_4223" type="Const" version="opset1">
			<data element_type="i64" shape="1" offset="16424" size="8" />
			<output>
				<port id="0" precision="I64">
					<dim>1</dim>
				</port>
			</output>
		</layer>
		<layer id="249" name="4720" type="Gather" version="opset8">
			<data batch_dims="0" />
			<input>
				<port id="0" precision="I64">
					<dim>3</dim>
				</port>
				<port id="1" precision="I64">
					<dim>1</dim>
				</port>
				<port id="2" precision="I64" />
			</input>
			<output>
				<port id="3" precision="I64" names="488">
					<dim>1</dim>
				</port>
			</output>
		</layer>
		<layer id="250" name="489" type="Concat" version="opset1">
			<data axis="0" />
			<input>
				<port id="0" precision="I64">
					<dim>1</dim>
				</port>
				<port id="1" precision="I64">
					<dim>1</dim>
				</port>
				<port id="2" precision="I64">
					<dim>1</dim>
				</port>
			</input>
			<output>
				<port id="3" precision="I64" names="489">
					<dim>3</dim>
				</port>
			</output>
		</layer>
		<layer id="251" name="490" type="Reshape" version="opset1">
			<data special_zero="true" />
			<input>
				<port id="0" precision="FP32">
					<dim>8</dim>
					<dim>16</dim>
					<dim>512</dim>
				</port>
				<port id="1" precision="I64">
					<dim>3</dim>
				</port>
			</input>
			<output>
				<port id="2" precision="FP32" names="490">
					<dim>8</dim>
					<dim>16</dim>
					<dim>512</dim>
				</port>
			</output>
		</layer>
		<layer id="252" name="233_compressed" type="Const" version="opset1">
			<data element_type="f16" shape="8, 512, 64" offset="7887066" size="524288" />
			<output>
				<port id="0" precision="FP16">
					<dim>8</dim>
					<dim>512</dim>
					<dim>64</dim>
				</port>
			</output>
		</layer>
		<layer id="253" name="233" type="Convert" version="opset1">
			<data destination_type="f32" />
			<rt_info>
				<attribute name="decompression" version="0" />
			</rt_info>
			<input>
				<port id="0" precision="FP16">
					<dim>8</dim>
					<dim>512</dim>
					<dim>64</dim>
				</port>
			</input>
			<output>
				<port id="1" precision="FP32" names="233">
					<dim>8</dim>
					<dim>512</dim>
					<dim>64</dim>
				</port>
			</output>
		</layer>
		<layer id="254" name="508" type="MatMul" version="opset1">
			<data transpose_a="false" transpose_b="false" />
			<input>
				<port id="0" precision="FP32">
					<dim>8</dim>
					<dim>16</dim>
					<dim>512</dim>
				</port>
				<port id="1" precision="FP32">
					<dim>8</dim>
					<dim>512</dim>
					<dim>64</dim>
				</port>
			</input>
			<output>
				<port id="2" precision="FP32" names="508">
					<dim>8</dim>
					<dim>16</dim>
					<dim>64</dim>
				</port>
			</output>
		</layer>
		<layer id="255" name="511" type="Const" version="opset1">
			<data element_type="i64" shape="1" offset="16416" size="8" />
			<output>
				<port id="0" precision="I64" names="511">
					<dim>1</dim>
				</port>
			</output>
		</layer>
		<layer id="256" name="Constant_4229" type="Const" version="opset1">
			<data element_type="i64" shape="1" offset="540728" size="8" />
			<output>
				<port id="0" precision="I64">
					<dim>1</dim>
				</port>
			</output>
		</layer>
		<layer id="257" name="Constant_725" type="Const" version="opset1">
			<data element_type="i64" shape="" offset="16432" size="8" />
			<output>
				<port id="0" precision="I64" />
			</output>
		</layer>
		<layer id="258" name="466" type="Gather" version="opset8">
			<data batch_dims="0" />
			<input>
				<port id="0" precision="I64">
					<dim>3</dim>
				</port>
				<port id="1" precision="I64">
					<dim>1</dim>
				</port>
				<port id="2" precision="I64" />
			</input>
			<output>
				<port id="3" precision="I64" names="512">
					<dim>1</dim>
				</port>
			</output>
		</layer>
		<layer id="259" name="513" type="Const" version="opset1">
			<data element_type="i64" shape="1" offset="540736" size="8" />
			<output>
				<port id="0" precision="I64" names="513">
					<dim>1</dim>
				</port>
			</output>
		</layer>
		<layer id="260" name="514" type="Concat" version="opset1">
			<data axis="0" />
			<input>
				<port id="0" precision="I64">
					<dim>1</dim>
				</port>
				<port id="1" precision="I64">
					<dim>1</dim>
				</port>
				<port id="2" precision="I64">
					<dim>1</dim>
				</port>
			</input>
			<output>
				<port id="3" precision="I64" names="514">
					<dim>3</dim>
				</port>
			</output>
		</layer>
		<layer id="261" name="515" type="Reshape" version="opset1">
			<data special_zero="true" />
			<input>
				<port id="0" precision="FP32">
					<dim>8</dim>
					<dim>16</dim>
					<dim>64</dim>
				</port>
				<port id="1" precision="I64">
					<dim>3</dim>
				</port>
			</input>
			<output>
				<port id="2" precision="FP32" names="515">
					<dim>8</dim>
					<dim>16</dim>
					<dim>64</dim>
				</port>
			</output>
		</layer>
		<layer id="262" name="Constant_5111_compressed" type="Const" version="opset1">
			<data element_type="f16" shape="1, 1, 1" offset="1065032" size="2" />
			<output>
				<port id="0" precision="FP16">
					<dim>1</dim>
					<dim>1</dim>
					<dim>1</dim>
				</port>
			</output>
		</layer>
		<layer id="263" name="Constant_5111" type="Convert" version="opset1">
			<data destination_type="f32" />
			<rt_info>
				<attribute name="decompression" version="0" />
			</rt_info>
			<input>
				<port id="0" precision="FP16">
					<dim>1</dim>
					<dim>1</dim>
					<dim>1</dim>
				</port>
			</input>
			<output>
				<port id="1" precision="FP32">
					<dim>1</dim>
					<dim>1</dim>
					<dim>1</dim>
				</port>
			</output>
		</layer>
		<layer id="264" name="Multiply_4952" type="Multiply" version="opset1">
			<data auto_broadcast="numpy" />
			<input>
				<port id="0" precision="FP32">
					<dim>8</dim>
					<dim>16</dim>
					<dim>64</dim>
				</port>
				<port id="1" precision="FP32">
					<dim>1</dim>
					<dim>1</dim>
					<dim>1</dim>
				</port>
			</input>
			<output>
				<port id="2" precision="FP32">
					<dim>8</dim>
					<dim>16</dim>
					<dim>64</dim>
				</port>
			</output>
		</layer>
		<layer id="265" name="527" type="MatMul" version="opset1">
			<data transpose_a="false" transpose_b="true" />
			<input>
				<port id="0" precision="FP32">
					<dim>8</dim>
					<dim>16</dim>
					<dim>64</dim>
				</port>
				<port id="1" precision="FP32">
					<dim>8</dim>
					<dim>16</dim>
					<dim>64</dim>
				</port>
			</input>
			<output>
				<port id="2" precision="FP32" names="527">
					<dim>8</dim>
					<dim>16</dim>
					<dim>16</dim>
				</port>
			</output>
		</layer>
		<layer id="266" name="529" type="ShapeOf" version="opset3">
			<data output_type="i64" />
			<input>
				<port id="0" precision="FP32">
					<dim>8</dim>
					<dim>16</dim>
					<dim>16</dim>
				</port>
			</input>
			<output>
				<port id="1" precision="I64" names="529,532">
					<dim>3</dim>
				</port>
			</output>
		</layer>
		<layer id="267" name="528" type="Const" version="opset1">
			<data element_type="i64" shape="" offset="16432" size="8" />
			<output>
				<port id="0" precision="I64" names="528" />
			</output>
		</layer>
		<layer id="268" name="Constant_853" type="Const" version="opset1">
			<data element_type="i64" shape="" offset="16432" size="8" />
			<output>
				<port id="0" precision="I64" />
			</output>
		</layer>
		<layer id="269" name="530" type="Gather" version="opset8">
			<data batch_dims="0" />
			<input>
				<port id="0" precision="I64">
					<dim>3</dim>
				</port>
				<port id="1" precision="I64" />
				<port id="2" precision="I64" />
			</input>
			<output>
				<port id="3" precision="I64" names="530" />
			</output>
		</layer>
		<layer id="270" name="531" type="Const" version="opset1">
			<data element_type="i64" shape="" offset="540728" size="8" />
			<output>
				<port id="0" precision="I64" names="531" />
			</output>
		</layer>
		<layer id="271" name="Constant_857" type="Const" version="opset1">
			<data element_type="i64" shape="" offset="16432" size="8" />
			<output>
				<port id="0" precision="I64" />
			</output>
		</layer>
		<layer id="272" name="533" type="Gather" version="opset8">
			<data batch_dims="0" />
			<input>
				<port id="0" precision="I64">
					<dim>3</dim>
				</port>
				<port id="1" precision="I64" />
				<port id="2" precision="I64" />
			</input>
			<output>
				<port id="3" precision="I64" names="533" />
			</output>
		</layer>
		<layer id="273" name="534" type="Multiply" version="opset1">
			<data auto_broadcast="numpy" />
			<input>
				<port id="0" precision="I64" />
				<port id="1" precision="I64" />
			</input>
			<output>
				<port id="2" precision="I64" names="534" />
			</output>
		</layer>
		<layer id="274" name="Constant_861" type="Const" version="opset1">
			<data element_type="i64" shape="1" offset="16432" size="8" />
			<output>
				<port id="0" precision="I64">
					<dim>1</dim>
				</port>
			</output>
		</layer>
		<layer id="275" name="536" type="Unsqueeze" version="opset1">
			<input>
				<port id="0" precision="I64" />
				<port id="1" precision="I64">
					<dim>1</dim>
				</port>
			</input>
			<output>
				<port id="2" precision="I64" names="536">
					<dim>1</dim>
				</port>
			</output>
		</layer>
		<layer id="276" name="537" type="Const" version="opset1">
			<data element_type="i64" shape="1" offset="16416" size="8" />
			<output>
				<port id="0" precision="I64" names="537">
					<dim>1</dim>
				</port>
			</output>
		</layer>
		<layer id="277" name="538" type="Concat" version="opset1">
			<data axis="0" />
			<input>
				<port id="0" precision="I64">
					<dim>1</dim>
				</port>
				<port id="1" precision="I64">
					<dim>1</dim>
				</port>
			</input>
			<output>
				<port id="2" precision="I64" names="538">
					<dim>2</dim>
				</port>
			</output>
		</layer>
		<layer id="278" name="539" type="Reshape" version="opset1">
			<data special_zero="true" />
			<input>
				<port id="0" precision="FP32">
					<dim>8</dim>
					<dim>16</dim>
					<dim>16</dim>
				</port>
				<port id="1" precision="I64">
					<dim>2</dim>
				</port>
			</input>
			<output>
				<port id="2" precision="FP32" names="539">
					<dim>128</dim>
					<dim>16</dim>
				</port>
			</output>
		</layer>
		<layer id="279" name="Constant_869" type="Const" version="opset1">
			<data element_type="i64" shape="2" offset="1065034" size="16" />
			<output>
				<port id="0" precision="I64">
					<dim>2</dim>
				</port>
			</output>
		</layer>
		<layer id="280" name="Reshape_870" type="Reshape" version="opset1">
			<data special_zero="true" />
			<input>
				<port id="0" precision="FP32">
					<dim>128</dim>
					<dim>16</dim>
				</port>
				<port id="1" precision="I64">
					<dim>2</dim>
				</port>
			</input>
			<output>
				<port id="2" precision="FP32">
					<dim>128</dim>
					<dim>16</dim>
				</port>
			</output>
		</layer>
		<layer id="281" name="Softmax_873" type="SoftMax" version="opset8">
			<data axis="1" />
			<input>
				<port id="0" precision="FP32">
					<dim>128</dim>
					<dim>16</dim>
				</port>
			</input>
			<output>
				<port id="1" precision="FP32">
					<dim>128</dim>
					<dim>16</dim>
				</port>
			</output>
		</layer>
		<layer id="282" name="ShapeOf_874" type="ShapeOf" version="opset3">
			<data output_type="i64" />
			<input>
				<port id="0" precision="FP32">
					<dim>128</dim>
					<dim>16</dim>
				</port>
			</input>
			<output>
				<port id="1" precision="I64">
					<dim>2</dim>
				</port>
			</output>
		</layer>
		<layer id="283" name="540" type="Reshape" version="opset1">
			<data special_zero="false" />
			<input>
				<port id="0" precision="FP32">
					<dim>128</dim>
					<dim>16</dim>
				</port>
				<port id="1" precision="I64">
					<dim>2</dim>
				</port>
			</input>
			<output>
				<port id="2" precision="FP32" names="540">
					<dim>128</dim>
					<dim>16</dim>
				</port>
			</output>
		</layer>
		<layer id="284" name="Constant_4314" type="Const" version="opset1">
			<data element_type="i64" shape="2" offset="1065050" size="16" />
			<output>
				<port id="0" precision="I64">
					<dim>2</dim>
				</port>
			</output>
		</layer>
		<layer id="285" name="Constant_4315" type="Const" version="opset1">
			<data element_type="i64" shape="" offset="16432" size="8" />
			<output>
				<port id="0" precision="I64" />
			</output>
		</layer>
		<layer id="286" name="Gather_4316" type="Gather" version="opset8">
			<data batch_dims="0" />
			<input>
				<port id="0" precision="I64">
					<dim>3</dim>
				</port>
				<port id="1" precision="I64">
					<dim>2</dim>
				</port>
				<port id="2" precision="I64" />
			</input>
			<output>
				<port id="3" precision="I64">
					<dim>2</dim>
				</port>
			</output>
		</layer>
		<layer id="287" name="544" type="Const" version="opset1">
			<data element_type="i64" shape="1" offset="16416" size="8" />
			<output>
				<port id="0" precision="I64" names="544">
					<dim>1</dim>
				</port>
			</output>
		</layer>
		<layer id="288" name="545" type="Concat" version="opset1">
			<data axis="0" />
			<input>
				<port id="0" precision="I64">
					<dim>2</dim>
				</port>
				<port id="1" precision="I64">
					<dim>1</dim>
				</port>
			</input>
			<output>
				<port id="2" precision="I64" names="545">
					<dim>3</dim>
				</port>
			</output>
		</layer>
		<layer id="289" name="547" type="Reshape" version="opset1">
			<data special_zero="true" />
			<input>
				<port id="0" precision="FP32">
					<dim>128</dim>
					<dim>16</dim>
				</port>
				<port id="1" precision="I64">
					<dim>3</dim>
				</port>
			</input>
			<output>
				<port id="2" precision="FP32" names="547">
					<dim>8</dim>
					<dim>16</dim>
					<dim>16</dim>
				</port>
			</output>
		</layer>
		<layer id="290" name="Convert_784" type="Const" version="opset1">
			<data element_type="i64" shape="3" offset="16384" size="24" />
			<output>
				<port id="0" precision="I64">
					<dim>3</dim>
				</port>
			</output>
		</layer>
		<layer id="291" name="492" type="Tile" version="opset1">
			<input>
				<port id="0" precision="FP32">
					<dim>1</dim>
					<dim>16</dim>
					<dim>512</dim>
				</port>
				<port id="1" precision="I64">
					<dim>3</dim>
				</port>
			</input>
			<output>
				<port id="2" precision="FP32" names="492">
					<dim>8</dim>
					<dim>16</dim>
					<dim>512</dim>
				</port>
			</output>
		</layer>
		<layer id="292" name="495" type="Const" version="opset1">
			<data element_type="i64" shape="1" offset="16408" size="8" />
			<output>
				<port id="0" precision="I64" names="495">
					<dim>1</dim>
				</port>
			</output>
		</layer>
		<layer id="293" name="496" type="Const" version="opset1">
			<data element_type="i64" shape="1" offset="16416" size="8" />
			<output>
				<port id="0" precision="I64" names="496">
					<dim>1</dim>
				</port>
			</output>
		</layer>
		<layer id="294" name="Constant_4247" type="Const" version="opset1">
			<data element_type="i64" shape="1" offset="16424" size="8" />
			<output>
				<port id="0" precision="I64">
					<dim>1</dim>
				</port>
			</output>
		</layer>
		<layer id="295" name="4721" type="Gather" version="opset8">
			<data batch_dims="0" />
			<input>
				<port id="0" precision="I64">
					<dim>3</dim>
				</port>
				<port id="1" precision="I64">
					<dim>1</dim>
				</port>
				<port id="2" precision="I64" />
			</input>
			<output>
				<port id="3" precision="I64" names="497">
					<dim>1</dim>
				</port>
			</output>
		</layer>
		<layer id="296" name="498" type="Concat" version="opset1">
			<data axis="0" />
			<input>
				<port id="0" precision="I64">
					<dim>1</dim>
				</port>
				<port id="1" precision="I64">
					<dim>1</dim>
				</port>
				<port id="2" precision="I64">
					<dim>1</dim>
				</port>
			</input>
			<output>
				<port id="3" precision="I64" names="498">
					<dim>3</dim>
				</port>
			</output>
		</layer>
		<layer id="297" name="499" type="Reshape" version="opset1">
			<data special_zero="true" />
			<input>
				<port id="0" precision="FP32">
					<dim>8</dim>
					<dim>16</dim>
					<dim>512</dim>
				</port>
				<port id="1" precision="I64">
					<dim>3</dim>
				</port>
			</input>
			<output>
				<port id="2" precision="FP32" names="499">
					<dim>8</dim>
					<dim>16</dim>
					<dim>512</dim>
				</port>
			</output>
		</layer>
		<layer id="298" name="234_compressed" type="Const" version="opset1">
			<data element_type="f16" shape="8, 512, 64" offset="8411354" size="524288" />
			<output>
				<port id="0" precision="FP16">
					<dim>8</dim>
					<dim>512</dim>
					<dim>64</dim>
				</port>
			</output>
		</layer>
		<layer id="299" name="234" type="Convert" version="opset1">
			<data destination_type="f32" />
			<rt_info>
				<attribute name="decompression" version="0" />
			</rt_info>
			<input>
				<port id="0" precision="FP16">
					<dim>8</dim>
					<dim>512</dim>
					<dim>64</dim>
				</port>
			</input>
			<output>
				<port id="1" precision="FP32" names="234">
					<dim>8</dim>
					<dim>512</dim>
					<dim>64</dim>
				</port>
			</output>
		</layer>
		<layer id="300" name="516" type="MatMul" version="opset1">
			<data transpose_a="false" transpose_b="false" />
			<input>
				<port id="0" precision="FP32">
					<dim>8</dim>
					<dim>16</dim>
					<dim>512</dim>
				</port>
				<port id="1" precision="FP32">
					<dim>8</dim>
					<dim>512</dim>
					<dim>64</dim>
				</port>
			</input>
			<output>
				<port id="2" precision="FP32" names="516">
					<dim>8</dim>
					<dim>16</dim>
					<dim>64</dim>
				</port>
			</output>
		</layer>
		<layer id="301" name="519" type="Const" version="opset1">
			<data element_type="i64" shape="1" offset="16416" size="8" />
			<output>
				<port id="0" precision="I64" names="519">
					<dim>1</dim>
				</port>
			</output>
		</layer>
		<layer id="302" name="Constant_4253" type="Const" version="opset1">
			<data element_type="i64" shape="1" offset="540728" size="8" />
			<output>
				<port id="0" precision="I64">
					<dim>1</dim>
				</port>
			</output>
		</layer>
		<layer id="303" name="Constant_729" type="Const" version="opset1">
			<data element_type="i64" shape="" offset="16432" size="8" />
			<output>
				<port id="0" precision="I64" />
			</output>
		</layer>
		<layer id="304" name="469" type="Gather" version="opset8">
			<data batch_dims="0" />
			<input>
				<port id="0" precision="I64">
					<dim>3</dim>
				</port>
				<port id="1" precision="I64">
					<dim>1</dim>
				</port>
				<port id="2" precision="I64" />
			</input>
			<output>
				<port id="3" precision="I64" names="520">
					<dim>1</dim>
				</port>
			</output>
		</layer>
		<layer id="305" name="521" type="Const" version="opset1">
			<data element_type="i64" shape="1" offset="540736" size="8" />
			<output>
				<port id="0" precision="I64" names="521">
					<dim>1</dim>
				</port>
			</output>
		</layer>
		<layer id="306" name="522" type="Concat" version="opset1">
			<data axis="0" />
			<input>
				<port id="0" precision="I64">
					<dim>1</dim>
				</port>
				<port id="1" precision="I64">
					<dim>1</dim>
				</port>
				<port id="2" precision="I64">
					<dim>1</dim>
				</port>
			</input>
			<output>
				<port id="3" precision="I64" names="522">
					<dim>3</dim>
				</port>
			</output>
		</layer>
		<layer id="307" name="523" type="Reshape" version="opset1">
			<data special_zero="true" />
			<input>
				<port id="0" precision="FP32">
					<dim>8</dim>
					<dim>16</dim>
					<dim>64</dim>
				</port>
				<port id="1" precision="I64">
					<dim>3</dim>
				</port>
			</input>
			<output>
				<port id="2" precision="FP32" names="523">
					<dim>8</dim>
					<dim>16</dim>
					<dim>64</dim>
				</port>
			</output>
		</layer>
		<layer id="308" name="549" type="MatMul" version="opset1">
			<data transpose_a="false" transpose_b="false" />
			<input>
				<port id="0" precision="FP32">
					<dim>8</dim>
					<dim>16</dim>
					<dim>16</dim>
				</port>
				<port id="1" precision="FP32">
					<dim>8</dim>
					<dim>16</dim>
					<dim>64</dim>
				</port>
			</input>
			<output>
				<port id="2" precision="FP32" names="549">
					<dim>8</dim>
					<dim>16</dim>
					<dim>64</dim>
				</port>
			</output>
		</layer>
		<layer id="309" name="550" type="Const" version="opset1">
			<data element_type="i64" shape="4" offset="1589354" size="32" />
			<output>
				<port id="0" precision="I64" names="550">
					<dim>4</dim>
				</port>
			</output>
		</layer>
		<layer id="310" name="551" type="Reshape" version="opset1">
			<data special_zero="true" />
			<input>
				<port id="0" precision="FP32">
					<dim>8</dim>
					<dim>16</dim>
					<dim>64</dim>
				</port>
				<port id="1" precision="I64">
					<dim>4</dim>
				</port>
			</input>
			<output>
				<port id="2" precision="FP32" names="551">
					<dim>8</dim>
					<dim>1</dim>
					<dim>16</dim>
					<dim>64</dim>
				</port>
			</output>
		</layer>
		<layer id="311" name="Constant_899" type="Const" version="opset1">
			<data element_type="i64" shape="4" offset="1589386" size="32" />
			<output>
				<port id="0" precision="I64">
					<dim>4</dim>
				</port>
			</output>
		</layer>
		<layer id="312" name="552" type="Transpose" version="opset1">
			<input>
				<port id="0" precision="FP32">
					<dim>8</dim>
					<dim>1</dim>
					<dim>16</dim>
					<dim>64</dim>
				</port>
				<port id="1" precision="I64">
					<dim>4</dim>
				</port>
			</input>
			<output>
				<port id="2" precision="FP32" names="552">
					<dim>1</dim>
					<dim>16</dim>
					<dim>8</dim>
					<dim>64</dim>
				</port>
			</output>
		</layer>
		<layer id="313" name="553" type="Const" version="opset1">
			<data element_type="i64" shape="3" offset="1589418" size="24" />
			<output>
				<port id="0" precision="I64" names="553">
					<dim>3</dim>
				</port>
			</output>
		</layer>
		<layer id="314" name="555" type="Reshape" version="opset1">
			<data special_zero="true" />
			<input>
				<port id="0" precision="FP32">
					<dim>1</dim>
					<dim>16</dim>
					<dim>8</dim>
					<dim>64</dim>
				</port>
				<port id="1" precision="I64">
					<dim>3</dim>
				</port>
			</input>
			<output>
				<port id="2" precision="FP32" names="555">
					<dim>1</dim>
					<dim>16</dim>
					<dim>512</dim>
				</port>
			</output>
		</layer>
		<layer id="315" name="557" type="Add" version="opset1">
			<data auto_broadcast="numpy" />
			<input>
				<port id="0" precision="FP32">
					<dim>1</dim>
					<dim>16</dim>
					<dim>512</dim>
				</port>
				<port id="1" precision="FP32">
					<dim>1</dim>
					<dim>16</dim>
					<dim>512</dim>
				</port>
			</input>
			<output>
				<port id="2" precision="FP32" names="557">
					<dim>1</dim>
					<dim>16</dim>
					<dim>512</dim>
				</port>
			</output>
		</layer>
		<layer id="316" name="Constant_911" type="Const" version="opset1">
			<data element_type="i64" shape="3" offset="1589442" size="24" />
			<output>
				<port id="0" precision="I64">
					<dim>3</dim>
				</port>
			</output>
		</layer>
		<layer id="317" name="558" type="Transpose" version="opset1">
			<input>
				<port id="0" precision="FP32">
					<dim>1</dim>
					<dim>16</dim>
					<dim>512</dim>
				</port>
				<port id="1" precision="I64">
					<dim>3</dim>
				</port>
			</input>
			<output>
				<port id="2" precision="FP32" names="558">
					<dim>1</dim>
					<dim>512</dim>
					<dim>16</dim>
				</port>
			</output>
		</layer>
		<layer id="318" name="235_compressed" type="Const" version="opset1">
			<data element_type="f16" shape="1024, 512, 1" offset="8935642" size="1048576" />
			<output>
				<port id="0" precision="FP16">
					<dim>1024</dim>
					<dim>512</dim>
					<dim>1</dim>
				</port>
			</output>
		</layer>
		<layer id="319" name="235" type="Convert" version="opset1">
			<data destination_type="f32" />
			<rt_info>
				<attribute name="decompression" version="0" />
			</rt_info>
			<input>
				<port id="0" precision="FP16">
					<dim>1024</dim>
					<dim>512</dim>
					<dim>1</dim>
				</port>
			</input>
			<output>
				<port id="1" precision="FP32" names="235">
					<dim>1024</dim>
					<dim>512</dim>
					<dim>1</dim>
				</port>
			</output>
		</layer>
		<layer id="320" name="559/WithoutBiases" type="Convolution" version="opset1">
			<data strides="1" dilations="1" pads_begin="0" pads_end="0" auto_pad="explicit" />
			<input>
				<port id="0" precision="FP32">
					<dim>1</dim>
					<dim>512</dim>
					<dim>16</dim>
				</port>
				<port id="1" precision="FP32">
					<dim>1024</dim>
					<dim>512</dim>
					<dim>1</dim>
				</port>
			</input>
			<output>
				<port id="2" precision="FP32">
					<dim>1</dim>
					<dim>1024</dim>
					<dim>16</dim>
				</port>
			</output>
		</layer>
		<layer id="321" name="Reshape_924_compressed" type="Const" version="opset1">
			<data element_type="f16" shape="1, 1024, 1" offset="9984218" size="2048" />
			<output>
				<port id="0" precision="FP16">
					<dim>1</dim>
					<dim>1024</dim>
					<dim>1</dim>
				</port>
			</output>
		</layer>
		<layer id="322" name="Reshape_924" type="Convert" version="opset1">
			<data destination_type="f32" />
			<rt_info>
				<attribute name="decompression" version="0" />
			</rt_info>
			<input>
				<port id="0" precision="FP16">
					<dim>1</dim>
					<dim>1024</dim>
					<dim>1</dim>
				</port>
			</input>
			<output>
				<port id="1" precision="FP32">
					<dim>1</dim>
					<dim>1024</dim>
					<dim>1</dim>
				</port>
			</output>
		</layer>
		<layer id="323" name="559" type="Add" version="opset1">
			<data auto_broadcast="numpy" />
			<input>
				<port id="0" precision="FP32">
					<dim>1</dim>
					<dim>1024</dim>
					<dim>16</dim>
				</port>
				<port id="1" precision="FP32">
					<dim>1</dim>
					<dim>1024</dim>
					<dim>1</dim>
				</port>
			</input>
			<output>
				<port id="2" precision="FP32" names="559">
					<dim>1</dim>
					<dim>1024</dim>
					<dim>16</dim>
				</port>
			</output>
		</layer>
		<layer id="324" name="560" type="ReLU" version="opset1">
			<input>
				<port id="0" precision="FP32">
					<dim>1</dim>
					<dim>1024</dim>
					<dim>16</dim>
				</port>
			</input>
			<output>
				<port id="1" precision="FP32" names="560">
					<dim>1</dim>
					<dim>1024</dim>
					<dim>16</dim>
				</port>
			</output>
		</layer>
		<layer id="325" name="237_compressed" type="Const" version="opset1">
			<data element_type="f16" shape="512, 1024, 1" offset="9986266" size="1048576" />
			<output>
				<port id="0" precision="FP16">
					<dim>512</dim>
					<dim>1024</dim>
					<dim>1</dim>
				</port>
			</output>
		</layer>
		<layer id="326" name="237" type="Convert" version="opset1">
			<data destination_type="f32" />
			<rt_info>
				<attribute name="decompression" version="0" />
			</rt_info>
			<input>
				<port id="0" precision="FP16">
					<dim>512</dim>
					<dim>1024</dim>
					<dim>1</dim>
				</port>
			</input>
			<output>
				<port id="1" precision="FP32" names="237">
					<dim>512</dim>
					<dim>1024</dim>
					<dim>1</dim>
				</port>
			</output>
		</layer>
		<layer id="327" name="561/WithoutBiases" type="Convolution" version="opset1">
			<data strides="1" dilations="1" pads_begin="0" pads_end="0" auto_pad="explicit" />
			<input>
				<port id="0" precision="FP32">
					<dim>1</dim>
					<dim>1024</dim>
					<dim>16</dim>
				</port>
				<port id="1" precision="FP32">
					<dim>512</dim>
					<dim>1024</dim>
					<dim>1</dim>
				</port>
			</input>
			<output>
				<port id="2" precision="FP32">
					<dim>1</dim>
					<dim>512</dim>
					<dim>16</dim>
				</port>
			</output>
		</layer>
		<layer id="328" name="Reshape_940_compressed" type="Const" version="opset1">
			<data element_type="f16" shape="1, 512, 1" offset="11034842" size="1024" />
			<output>
				<port id="0" precision="FP16">
					<dim>1</dim>
					<dim>512</dim>
					<dim>1</dim>
				</port>
			</output>
		</layer>
		<layer id="329" name="Reshape_940" type="Convert" version="opset1">
			<data destination_type="f32" />
			<rt_info>
				<attribute name="decompression" version="0" />
			</rt_info>
			<input>
				<port id="0" precision="FP16">
					<dim>1</dim>
					<dim>512</dim>
					<dim>1</dim>
				</port>
			</input>
			<output>
				<port id="1" precision="FP32">
					<dim>1</dim>
					<dim>512</dim>
					<dim>1</dim>
				</port>
			</output>
		</layer>
		<layer id="330" name="561" type="Add" version="opset1">
			<data auto_broadcast="numpy" />
			<input>
				<port id="0" precision="FP32">
					<dim>1</dim>
					<dim>512</dim>
					<dim>16</dim>
				</port>
				<port id="1" precision="FP32">
					<dim>1</dim>
					<dim>512</dim>
					<dim>1</dim>
				</port>
			</input>
			<output>
				<port id="2" precision="FP32" names="561">
					<dim>1</dim>
					<dim>512</dim>
					<dim>16</dim>
				</port>
			</output>
		</layer>
		<layer id="331" name="Constant_944" type="Const" version="opset1">
			<data element_type="i64" shape="3" offset="1589442" size="24" />
			<output>
				<port id="0" precision="I64">
					<dim>3</dim>
				</port>
			</output>
		</layer>
		<layer id="332" name="563" type="Transpose" version="opset1">
			<input>
				<port id="0" precision="FP32">
					<dim>1</dim>
					<dim>512</dim>
					<dim>16</dim>
				</port>
				<port id="1" precision="I64">
					<dim>3</dim>
				</port>
			</input>
			<output>
				<port id="2" precision="FP32" names="563">
					<dim>1</dim>
					<dim>16</dim>
					<dim>512</dim>
				</port>
			</output>
		</layer>
		<layer id="333" name="565" type="Add" version="opset1">
			<data auto_broadcast="numpy" />
			<input>
				<port id="0" precision="FP32">
					<dim>1</dim>
					<dim>16</dim>
					<dim>512</dim>
				</port>
				<port id="1" precision="FP32">
					<dim>1</dim>
					<dim>16</dim>
					<dim>512</dim>
				</port>
			</input>
			<output>
				<port id="2" precision="FP32" names="565">
					<dim>1</dim>
					<dim>16</dim>
					<dim>512</dim>
				</port>
			</output>
		</layer>
		<layer id="334" name="Convert_969" type="Const" version="opset1">
			<data element_type="i64" shape="3" offset="16384" size="24" />
			<output>
				<port id="0" precision="I64">
					<dim>3</dim>
				</port>
			</output>
		</layer>
		<layer id="335" name="579" type="Tile" version="opset1">
			<input>
				<port id="0" precision="FP32">
					<dim>1</dim>
					<dim>16</dim>
					<dim>512</dim>
				</port>
				<port id="1" precision="I64">
					<dim>3</dim>
				</port>
			</input>
			<output>
				<port id="2" precision="FP32" names="579">
					<dim>8</dim>
					<dim>16</dim>
					<dim>512</dim>
				</port>
			</output>
		</layer>
		<layer id="336" name="582" type="Const" version="opset1">
			<data element_type="i64" shape="1" offset="16408" size="8" />
			<output>
				<port id="0" precision="I64" names="582">
					<dim>1</dim>
				</port>
			</output>
		</layer>
		<layer id="337" name="583" type="Const" version="opset1">
			<data element_type="i64" shape="1" offset="16416" size="8" />
			<output>
				<port id="0" precision="I64" names="583">
					<dim>1</dim>
				</port>
			</output>
		</layer>
		<layer id="338" name="576" type="ShapeOf" version="opset3">
			<data output_type="i64" />
			<input>
				<port id="0" precision="FP32">
					<dim>1</dim>
					<dim>16</dim>
					<dim>512</dim>
				</port>
			</input>
			<output>
				<port id="1" precision="I64" names="567,570,573,576">
					<dim>3</dim>
				</port>
			</output>
		</layer>
		<layer id="339" name="Constant_4259" type="Const" version="opset1">
			<data element_type="i64" shape="1" offset="16424" size="8" />
			<output>
				<port id="0" precision="I64">
					<dim>1</dim>
				</port>
			</output>
		</layer>
		<layer id="340" name="Constant_966" type="Const" version="opset1">
			<data element_type="i64" shape="" offset="16432" size="8" />
			<output>
				<port id="0" precision="I64" />
			</output>
		</layer>
		<layer id="341" name="577" type="Gather" version="opset8">
			<data batch_dims="0" />
			<input>
				<port id="0" precision="I64">
					<dim>3</dim>
				</port>
				<port id="1" precision="I64">
					<dim>1</dim>
				</port>
				<port id="2" precision="I64" />
			</input>
			<output>
				<port id="3" precision="I64" names="584">
					<dim>1</dim>
				</port>
			</output>
		</layer>
		<layer id="342" name="585" type="Concat" version="opset1">
			<data axis="0" />
			<input>
				<port id="0" precision="I64">
					<dim>1</dim>
				</port>
				<port id="1" precision="I64">
					<dim>1</dim>
				</port>
				<port id="2" precision="I64">
					<dim>1</dim>
				</port>
			</input>
			<output>
				<port id="3" precision="I64" names="585">
					<dim>3</dim>
				</port>
			</output>
		</layer>
		<layer id="343" name="586" type="Reshape" version="opset1">
			<data special_zero="true" />
			<input>
				<port id="0" precision="FP32">
					<dim>8</dim>
					<dim>16</dim>
					<dim>512</dim>
				</port>
				<port id="1" precision="I64">
					<dim>3</dim>
				</port>
			</input>
			<output>
				<port id="2" precision="FP32" names="586">
					<dim>8</dim>
					<dim>16</dim>
					<dim>512</dim>
				</port>
			</output>
		</layer>
		<layer id="344" name="239_compressed" type="Const" version="opset1">
			<data element_type="f16" shape="8, 512, 64" offset="11035866" size="524288" />
			<output>
				<port id="0" precision="FP16">
					<dim>8</dim>
					<dim>512</dim>
					<dim>64</dim>
				</port>
			</output>
		</layer>
		<layer id="345" name="239" type="Convert" version="opset1">
			<data destination_type="f32" />
			<rt_info>
				<attribute name="decompression" version="0" />
			</rt_info>
			<input>
				<port id="0" precision="FP16">
					<dim>8</dim>
					<dim>512</dim>
					<dim>64</dim>
				</port>
			</input>
			<output>
				<port id="1" precision="FP32" names="239">
					<dim>8</dim>
					<dim>512</dim>
					<dim>64</dim>
				</port>
			</output>
		</layer>
		<layer id="346" name="605" type="MatMul" version="opset1">
			<data transpose_a="false" transpose_b="false" />
			<input>
				<port id="0" precision="FP32">
					<dim>8</dim>
					<dim>16</dim>
					<dim>512</dim>
				</port>
				<port id="1" precision="FP32">
					<dim>8</dim>
					<dim>512</dim>
					<dim>64</dim>
				</port>
			</input>
			<output>
				<port id="2" precision="FP32" names="605">
					<dim>8</dim>
					<dim>16</dim>
					<dim>64</dim>
				</port>
			</output>
		</layer>
		<layer id="347" name="608" type="Const" version="opset1">
			<data element_type="i64" shape="1" offset="16416" size="8" />
			<output>
				<port id="0" precision="I64" names="608">
					<dim>1</dim>
				</port>
			</output>
		</layer>
		<layer id="348" name="Constant_4265" type="Const" version="opset1">
			<data element_type="i64" shape="1" offset="540728" size="8" />
			<output>
				<port id="0" precision="I64">
					<dim>1</dim>
				</port>
			</output>
		</layer>
		<layer id="349" name="Constant_954" type="Const" version="opset1">
			<data element_type="i64" shape="" offset="16432" size="8" />
			<output>
				<port id="0" precision="I64" />
			</output>
		</layer>
		<layer id="350" name="568" type="Gather" version="opset8">
			<data batch_dims="0" />
			<input>
				<port id="0" precision="I64">
					<dim>3</dim>
				</port>
				<port id="1" precision="I64">
					<dim>1</dim>
				</port>
				<port id="2" precision="I64" />
			</input>
			<output>
				<port id="3" precision="I64" names="609">
					<dim>1</dim>
				</port>
			</output>
		</layer>
		<layer id="351" name="610" type="Const" version="opset1">
			<data element_type="i64" shape="1" offset="540736" size="8" />
			<output>
				<port id="0" precision="I64" names="610">
					<dim>1</dim>
				</port>
			</output>
		</layer>
		<layer id="352" name="611" type="Concat" version="opset1">
			<data axis="0" />
			<input>
				<port id="0" precision="I64">
					<dim>1</dim>
				</port>
				<port id="1" precision="I64">
					<dim>1</dim>
				</port>
				<port id="2" precision="I64">
					<dim>1</dim>
				</port>
			</input>
			<output>
				<port id="3" precision="I64" names="611">
					<dim>3</dim>
				</port>
			</output>
		</layer>
		<layer id="353" name="612" type="Reshape" version="opset1">
			<data special_zero="true" />
			<input>
				<port id="0" precision="FP32">
					<dim>8</dim>
					<dim>16</dim>
					<dim>64</dim>
				</port>
				<port id="1" precision="I64">
					<dim>3</dim>
				</port>
			</input>
			<output>
				<port id="2" precision="FP32" names="612">
					<dim>8</dim>
					<dim>16</dim>
					<dim>64</dim>
				</port>
			</output>
		</layer>
		<layer id="354" name="Convert_993" type="Const" version="opset1">
			<data element_type="i64" shape="3" offset="16384" size="24" />
			<output>
				<port id="0" precision="I64">
					<dim>3</dim>
				</port>
			</output>
		</layer>
		<layer id="355" name="588" type="Tile" version="opset1">
			<input>
				<port id="0" precision="FP32">
					<dim>1</dim>
					<dim>16</dim>
					<dim>512</dim>
				</port>
				<port id="1" precision="I64">
					<dim>3</dim>
				</port>
			</input>
			<output>
				<port id="2" precision="FP32" names="588">
					<dim>8</dim>
					<dim>16</dim>
					<dim>512</dim>
				</port>
			</output>
		</layer>
		<layer id="356" name="591" type="Const" version="opset1">
			<data element_type="i64" shape="1" offset="16408" size="8" />
			<output>
				<port id="0" precision="I64" names="591">
					<dim>1</dim>
				</port>
			</output>
		</layer>
		<layer id="357" name="592" type="Const" version="opset1">
			<data element_type="i64" shape="1" offset="16416" size="8" />
			<output>
				<port id="0" precision="I64" names="592">
					<dim>1</dim>
				</port>
			</output>
		</layer>
		<layer id="358" name="Constant_4271" type="Const" version="opset1">
			<data element_type="i64" shape="1" offset="16424" size="8" />
			<output>
				<port id="0" precision="I64">
					<dim>1</dim>
				</port>
			</output>
		</layer>
		<layer id="359" name="5770" type="Gather" version="opset8">
			<data batch_dims="0" />
			<input>
				<port id="0" precision="I64">
					<dim>3</dim>
				</port>
				<port id="1" precision="I64">
					<dim>1</dim>
				</port>
				<port id="2" precision="I64" />
			</input>
			<output>
				<port id="3" precision="I64" names="593">
					<dim>1</dim>
				</port>
			</output>
		</layer>
		<layer id="360" name="594" type="Concat" version="opset1">
			<data axis="0" />
			<input>
				<port id="0" precision="I64">
					<dim>1</dim>
				</port>
				<port id="1" precision="I64">
					<dim>1</dim>
				</port>
				<port id="2" precision="I64">
					<dim>1</dim>
				</port>
			</input>
			<output>
				<port id="3" precision="I64" names="594">
					<dim>3</dim>
				</port>
			</output>
		</layer>
		<layer id="361" name="595" type="Reshape" version="opset1">
			<data special_zero="true" />
			<input>
				<port id="0" precision="FP32">
					<dim>8</dim>
					<dim>16</dim>
					<dim>512</dim>
				</port>
				<port id="1" precision="I64">
					<dim>3</dim>
				</port>
			</input>
			<output>
				<port id="2" precision="FP32" names="595">
					<dim>8</dim>
					<dim>16</dim>
					<dim>512</dim>
				</port>
			</output>
		</layer>
		<layer id="362" name="240_compressed" type="Const" version="opset1">
			<data element_type="f16" shape="8, 512, 64" offset="11560154" size="524288" />
			<output>
				<port id="0" precision="FP16">
					<dim>8</dim>
					<dim>512</dim>
					<dim>64</dim>
				</port>
			</output>
		</layer>
		<layer id="363" name="240" type="Convert" version="opset1">
			<data destination_type="f32" />
			<rt_info>
				<attribute name="decompression" version="0" />
			</rt_info>
			<input>
				<port id="0" precision="FP16">
					<dim>8</dim>
					<dim>512</dim>
					<dim>64</dim>
				</port>
			</input>
			<output>
				<port id="1" precision="FP32" names="240">
					<dim>8</dim>
					<dim>512</dim>
					<dim>64</dim>
				</port>
			</output>
		</layer>
		<layer id="364" name="613" type="MatMul" version="opset1">
			<data transpose_a="false" transpose_b="false" />
			<input>
				<port id="0" precision="FP32">
					<dim>8</dim>
					<dim>16</dim>
					<dim>512</dim>
				</port>
				<port id="1" precision="FP32">
					<dim>8</dim>
					<dim>512</dim>
					<dim>64</dim>
				</port>
			</input>
			<output>
				<port id="2" precision="FP32" names="613">
					<dim>8</dim>
					<dim>16</dim>
					<dim>64</dim>
				</port>
			</output>
		</layer>
		<layer id="365" name="616" type="Const" version="opset1">
			<data element_type="i64" shape="1" offset="16416" size="8" />
			<output>
				<port id="0" precision="I64" names="616">
					<dim>1</dim>
				</port>
			</output>
		</layer>
		<layer id="366" name="Constant_4277" type="Const" version="opset1">
			<data element_type="i64" shape="1" offset="540728" size="8" />
			<output>
				<port id="0" precision="I64">
					<dim>1</dim>
				</port>
			</output>
		</layer>
		<layer id="367" name="Constant_958" type="Const" version="opset1">
			<data element_type="i64" shape="" offset="16432" size="8" />
			<output>
				<port id="0" precision="I64" />
			</output>
		</layer>
		<layer id="368" name="571" type="Gather" version="opset8">
			<data batch_dims="0" />
			<input>
				<port id="0" precision="I64">
					<dim>3</dim>
				</port>
				<port id="1" precision="I64">
					<dim>1</dim>
				</port>
				<port id="2" precision="I64" />
			</input>
			<output>
				<port id="3" precision="I64" names="617">
					<dim>1</dim>
				</port>
			</output>
		</layer>
		<layer id="369" name="618" type="Const" version="opset1">
			<data element_type="i64" shape="1" offset="540736" size="8" />
			<output>
				<port id="0" precision="I64" names="618">
					<dim>1</dim>
				</port>
			</output>
		</layer>
		<layer id="370" name="619" type="Concat" version="opset1">
			<data axis="0" />
			<input>
				<port id="0" precision="I64">
					<dim>1</dim>
				</port>
				<port id="1" precision="I64">
					<dim>1</dim>
				</port>
				<port id="2" precision="I64">
					<dim>1</dim>
				</port>
			</input>
			<output>
				<port id="3" precision="I64" names="619">
					<dim>3</dim>
				</port>
			</output>
		</layer>
		<layer id="371" name="620" type="Reshape" version="opset1">
			<data special_zero="true" />
			<input>
				<port id="0" precision="FP32">
					<dim>8</dim>
					<dim>16</dim>
					<dim>64</dim>
				</port>
				<port id="1" precision="I64">
					<dim>3</dim>
				</port>
			</input>
			<output>
				<port id="2" precision="FP32" names="620">
					<dim>8</dim>
					<dim>16</dim>
					<dim>64</dim>
				</port>
			</output>
		</layer>
		<layer id="372" name="Constant_5112_compressed" type="Const" version="opset1">
			<data element_type="f16" shape="1, 1, 1" offset="1065032" size="2" />
			<output>
				<port id="0" precision="FP16">
					<dim>1</dim>
					<dim>1</dim>
					<dim>1</dim>
				</port>
			</output>
		</layer>
		<layer id="373" name="Constant_5112" type="Convert" version="opset1">
			<data destination_type="f32" />
			<rt_info>
				<attribute name="decompression" version="0" />
			</rt_info>
			<input>
				<port id="0" precision="FP16">
					<dim>1</dim>
					<dim>1</dim>
					<dim>1</dim>
				</port>
			</input>
			<output>
				<port id="1" precision="FP32">
					<dim>1</dim>
					<dim>1</dim>
					<dim>1</dim>
				</port>
			</output>
		</layer>
		<layer id="374" name="Multiply_4954" type="Multiply" version="opset1">
			<data auto_broadcast="numpy" />
			<input>
				<port id="0" precision="FP32">
					<dim>8</dim>
					<dim>16</dim>
					<dim>64</dim>
				</port>
				<port id="1" precision="FP32">
					<dim>1</dim>
					<dim>1</dim>
					<dim>1</dim>
				</port>
			</input>
			<output>
				<port id="2" precision="FP32">
					<dim>8</dim>
					<dim>16</dim>
					<dim>64</dim>
				</port>
			</output>
		</layer>
		<layer id="375" name="632" type="MatMul" version="opset1">
			<data transpose_a="false" transpose_b="true" />
			<input>
				<port id="0" precision="FP32">
					<dim>8</dim>
					<dim>16</dim>
					<dim>64</dim>
				</port>
				<port id="1" precision="FP32">
					<dim>8</dim>
					<dim>16</dim>
					<dim>64</dim>
				</port>
			</input>
			<output>
				<port id="2" precision="FP32" names="632">
					<dim>8</dim>
					<dim>16</dim>
					<dim>16</dim>
				</port>
			</output>
		</layer>
		<layer id="376" name="634" type="ShapeOf" version="opset3">
			<data output_type="i64" />
			<input>
				<port id="0" precision="FP32">
					<dim>8</dim>
					<dim>16</dim>
					<dim>16</dim>
				</port>
			</input>
			<output>
				<port id="1" precision="I64" names="634,637">
					<dim>3</dim>
				</port>
			</output>
		</layer>
		<layer id="377" name="633" type="Const" version="opset1">
			<data element_type="i64" shape="" offset="16432" size="8" />
			<output>
				<port id="0" precision="I64" names="633" />
			</output>
		</layer>
		<layer id="378" name="Constant_1086" type="Const" version="opset1">
			<data element_type="i64" shape="" offset="16432" size="8" />
			<output>
				<port id="0" precision="I64" />
			</output>
		</layer>
		<layer id="379" name="635" type="Gather" version="opset8">
			<data batch_dims="0" />
			<input>
				<port id="0" precision="I64">
					<dim>3</dim>
				</port>
				<port id="1" precision="I64" />
				<port id="2" precision="I64" />
			</input>
			<output>
				<port id="3" precision="I64" names="635" />
			</output>
		</layer>
		<layer id="380" name="636" type="Const" version="opset1">
			<data element_type="i64" shape="" offset="540728" size="8" />
			<output>
				<port id="0" precision="I64" names="636" />
			</output>
		</layer>
		<layer id="381" name="Constant_1090" type="Const" version="opset1">
			<data element_type="i64" shape="" offset="16432" size="8" />
			<output>
				<port id="0" precision="I64" />
			</output>
		</layer>
		<layer id="382" name="638" type="Gather" version="opset8">
			<data batch_dims="0" />
			<input>
				<port id="0" precision="I64">
					<dim>3</dim>
				</port>
				<port id="1" precision="I64" />
				<port id="2" precision="I64" />
			</input>
			<output>
				<port id="3" precision="I64" names="638" />
			</output>
		</layer>
		<layer id="383" name="639" type="Multiply" version="opset1">
			<data auto_broadcast="numpy" />
			<input>
				<port id="0" precision="I64" />
				<port id="1" precision="I64" />
			</input>
			<output>
				<port id="2" precision="I64" names="639" />
			</output>
		</layer>
		<layer id="384" name="Constant_1094" type="Const" version="opset1">
			<data element_type="i64" shape="1" offset="16432" size="8" />
			<output>
				<port id="0" precision="I64">
					<dim>1</dim>
				</port>
			</output>
		</layer>
		<layer id="385" name="641" type="Unsqueeze" version="opset1">
			<input>
				<port id="0" precision="I64" />
				<port id="1" precision="I64">
					<dim>1</dim>
				</port>
			</input>
			<output>
				<port id="2" precision="I64" names="641">
					<dim>1</dim>
				</port>
			</output>
		</layer>
		<layer id="386" name="642" type="Const" version="opset1">
			<data element_type="i64" shape="1" offset="16416" size="8" />
			<output>
				<port id="0" precision="I64" names="642">
					<dim>1</dim>
				</port>
			</output>
		</layer>
		<layer id="387" name="643" type="Concat" version="opset1">
			<data axis="0" />
			<input>
				<port id="0" precision="I64">
					<dim>1</dim>
				</port>
				<port id="1" precision="I64">
					<dim>1</dim>
				</port>
			</input>
			<output>
				<port id="2" precision="I64" names="643">
					<dim>2</dim>
				</port>
			</output>
		</layer>
		<layer id="388" name="644" type="Reshape" version="opset1">
			<data special_zero="true" />
			<input>
				<port id="0" precision="FP32">
					<dim>8</dim>
					<dim>16</dim>
					<dim>16</dim>
				</port>
				<port id="1" precision="I64">
					<dim>2</dim>
				</port>
			</input>
			<output>
				<port id="2" precision="FP32" names="644">
					<dim>128</dim>
					<dim>16</dim>
				</port>
			</output>
		</layer>
		<layer id="389" name="Constant_1102" type="Const" version="opset1">
			<data element_type="i64" shape="2" offset="1065034" size="16" />
			<output>
				<port id="0" precision="I64">
					<dim>2</dim>
				</port>
			</output>
		</layer>
		<layer id="390" name="Reshape_1103" type="Reshape" version="opset1">
			<data special_zero="true" />
			<input>
				<port id="0" precision="FP32">
					<dim>128</dim>
					<dim>16</dim>
				</port>
				<port id="1" precision="I64">
					<dim>2</dim>
				</port>
			</input>
			<output>
				<port id="2" precision="FP32">
					<dim>128</dim>
					<dim>16</dim>
				</port>
			</output>
		</layer>
		<layer id="391" name="Softmax_1106" type="SoftMax" version="opset8">
			<data axis="1" />
			<input>
				<port id="0" precision="FP32">
					<dim>128</dim>
					<dim>16</dim>
				</port>
			</input>
			<output>
				<port id="1" precision="FP32">
					<dim>128</dim>
					<dim>16</dim>
				</port>
			</output>
		</layer>
		<layer id="392" name="ShapeOf_1107" type="ShapeOf" version="opset3">
			<data output_type="i64" />
			<input>
				<port id="0" precision="FP32">
					<dim>128</dim>
					<dim>16</dim>
				</port>
			</input>
			<output>
				<port id="1" precision="I64">
					<dim>2</dim>
				</port>
			</output>
		</layer>
		<layer id="393" name="645" type="Reshape" version="opset1">
			<data special_zero="false" />
			<input>
				<port id="0" precision="FP32">
					<dim>128</dim>
					<dim>16</dim>
				</port>
				<port id="1" precision="I64">
					<dim>2</dim>
				</port>
			</input>
			<output>
				<port id="2" precision="FP32" names="645">
					<dim>128</dim>
					<dim>16</dim>
				</port>
			</output>
		</layer>
		<layer id="394" name="Constant_4319" type="Const" version="opset1">
			<data element_type="i64" shape="2" offset="1065050" size="16" />
			<output>
				<port id="0" precision="I64">
					<dim>2</dim>
				</port>
			</output>
		</layer>
		<layer id="395" name="Constant_4320" type="Const" version="opset1">
			<data element_type="i64" shape="" offset="16432" size="8" />
			<output>
				<port id="0" precision="I64" />
			</output>
		</layer>
		<layer id="396" name="Gather_4321" type="Gather" version="opset8">
			<data batch_dims="0" />
			<input>
				<port id="0" precision="I64">
					<dim>3</dim>
				</port>
				<port id="1" precision="I64">
					<dim>2</dim>
				</port>
				<port id="2" precision="I64" />
			</input>
			<output>
				<port id="3" precision="I64">
					<dim>2</dim>
				</port>
			</output>
		</layer>
		<layer id="397" name="649" type="Const" version="opset1">
			<data element_type="i64" shape="1" offset="16416" size="8" />
			<output>
				<port id="0" precision="I64" names="649">
					<dim>1</dim>
				</port>
			</output>
		</layer>
		<layer id="398" name="650" type="Concat" version="opset1">
			<data axis="0" />
			<input>
				<port id="0" precision="I64">
					<dim>2</dim>
				</port>
				<port id="1" precision="I64">
					<dim>1</dim>
				</port>
			</input>
			<output>
				<port id="2" precision="I64" names="650">
					<dim>3</dim>
				</port>
			</output>
		</layer>
		<layer id="399" name="652" type="Reshape" version="opset1">
			<data special_zero="true" />
			<input>
				<port id="0" precision="FP32">
					<dim>128</dim>
					<dim>16</dim>
				</port>
				<port id="1" precision="I64">
					<dim>3</dim>
				</port>
			</input>
			<output>
				<port id="2" precision="FP32" names="652">
					<dim>8</dim>
					<dim>16</dim>
					<dim>16</dim>
				</port>
			</output>
		</layer>
		<layer id="400" name="Convert_1017" type="Const" version="opset1">
			<data element_type="i64" shape="3" offset="16384" size="24" />
			<output>
				<port id="0" precision="I64">
					<dim>3</dim>
				</port>
			</output>
		</layer>
		<layer id="401" name="597" type="Tile" version="opset1">
			<input>
				<port id="0" precision="FP32">
					<dim>1</dim>
					<dim>16</dim>
					<dim>512</dim>
				</port>
				<port id="1" precision="I64">
					<dim>3</dim>
				</port>
			</input>
			<output>
				<port id="2" precision="FP32" names="597">
					<dim>8</dim>
					<dim>16</dim>
					<dim>512</dim>
				</port>
			</output>
		</layer>
		<layer id="402" name="600" type="Const" version="opset1">
			<data element_type="i64" shape="1" offset="16408" size="8" />
			<output>
				<port id="0" precision="I64" names="600">
					<dim>1</dim>
				</port>
			</output>
		</layer>
		<layer id="403" name="601" type="Const" version="opset1">
			<data element_type="i64" shape="1" offset="16416" size="8" />
			<output>
				<port id="0" precision="I64" names="601">
					<dim>1</dim>
				</port>
			</output>
		</layer>
		<layer id="404" name="Constant_4295" type="Const" version="opset1">
			<data element_type="i64" shape="1" offset="16424" size="8" />
			<output>
				<port id="0" precision="I64">
					<dim>1</dim>
				</port>
			</output>
		</layer>
		<layer id="405" name="5771" type="Gather" version="opset8">
			<data batch_dims="0" />
			<input>
				<port id="0" precision="I64">
					<dim>3</dim>
				</port>
				<port id="1" precision="I64">
					<dim>1</dim>
				</port>
				<port id="2" precision="I64" />
			</input>
			<output>
				<port id="3" precision="I64" names="602">
					<dim>1</dim>
				</port>
			</output>
		</layer>
		<layer id="406" name="603" type="Concat" version="opset1">
			<data axis="0" />
			<input>
				<port id="0" precision="I64">
					<dim>1</dim>
				</port>
				<port id="1" precision="I64">
					<dim>1</dim>
				</port>
				<port id="2" precision="I64">
					<dim>1</dim>
				</port>
			</input>
			<output>
				<port id="3" precision="I64" names="603">
					<dim>3</dim>
				</port>
			</output>
		</layer>
		<layer id="407" name="604" type="Reshape" version="opset1">
			<data special_zero="true" />
			<input>
				<port id="0" precision="FP32">
					<dim>8</dim>
					<dim>16</dim>
					<dim>512</dim>
				</port>
				<port id="1" precision="I64">
					<dim>3</dim>
				</port>
			</input>
			<output>
				<port id="2" precision="FP32" names="604">
					<dim>8</dim>
					<dim>16</dim>
					<dim>512</dim>
				</port>
			</output>
		</layer>
		<layer id="408" name="241_compressed" type="Const" version="opset1">
			<data element_type="f16" shape="8, 512, 64" offset="12084442" size="524288" />
			<output>
				<port id="0" precision="FP16">
					<dim>8</dim>
					<dim>512</dim>
					<dim>64</dim>
				</port>
			</output>
		</layer>
		<layer id="409" name="241" type="Convert" version="opset1">
			<data destination_type="f32" />
			<rt_info>
				<attribute name="decompression" version="0" />
			</rt_info>
			<input>
				<port id="0" precision="FP16">
					<dim>8</dim>
					<dim>512</dim>
					<dim>64</dim>
				</port>
			</input>
			<output>
				<port id="1" precision="FP32" names="241">
					<dim>8</dim>
					<dim>512</dim>
					<dim>64</dim>
				</port>
			</output>
		</layer>
		<layer id="410" name="621" type="MatMul" version="opset1">
			<data transpose_a="false" transpose_b="false" />
			<input>
				<port id="0" precision="FP32">
					<dim>8</dim>
					<dim>16</dim>
					<dim>512</dim>
				</port>
				<port id="1" precision="FP32">
					<dim>8</dim>
					<dim>512</dim>
					<dim>64</dim>
				</port>
			</input>
			<output>
				<port id="2" precision="FP32" names="621">
					<dim>8</dim>
					<dim>16</dim>
					<dim>64</dim>
				</port>
			</output>
		</layer>
		<layer id="411" name="624" type="Const" version="opset1">
			<data element_type="i64" shape="1" offset="16416" size="8" />
			<output>
				<port id="0" precision="I64" names="624">
					<dim>1</dim>
				</port>
			</output>
		</layer>
		<layer id="412" name="Constant_4301" type="Const" version="opset1">
			<data element_type="i64" shape="1" offset="540728" size="8" />
			<output>
				<port id="0" precision="I64">
					<dim>1</dim>
				</port>
			</output>
		</layer>
		<layer id="413" name="Constant_962" type="Const" version="opset1">
			<data element_type="i64" shape="" offset="16432" size="8" />
			<output>
				<port id="0" precision="I64" />
			</output>
		</layer>
		<layer id="414" name="574" type="Gather" version="opset8">
			<data batch_dims="0" />
			<input>
				<port id="0" precision="I64">
					<dim>3</dim>
				</port>
				<port id="1" precision="I64">
					<dim>1</dim>
				</port>
				<port id="2" precision="I64" />
			</input>
			<output>
				<port id="3" precision="I64" names="625">
					<dim>1</dim>
				</port>
			</output>
		</layer>
		<layer id="415" name="626" type="Const" version="opset1">
			<data element_type="i64" shape="1" offset="540736" size="8" />
			<output>
				<port id="0" precision="I64" names="626">
					<dim>1</dim>
				</port>
			</output>
		</layer>
		<layer id="416" name="627" type="Concat" version="opset1">
			<data axis="0" />
			<input>
				<port id="0" precision="I64">
					<dim>1</dim>
				</port>
				<port id="1" precision="I64">
					<dim>1</dim>
				</port>
				<port id="2" precision="I64">
					<dim>1</dim>
				</port>
			</input>
			<output>
				<port id="3" precision="I64" names="627">
					<dim>3</dim>
				</port>
			</output>
		</layer>
		<layer id="417" name="628" type="Reshape" version="opset1">
			<data special_zero="true" />
			<input>
				<port id="0" precision="FP32">
					<dim>8</dim>
					<dim>16</dim>
					<dim>64</dim>
				</port>
				<port id="1" precision="I64">
					<dim>3</dim>
				</port>
			</input>
			<output>
				<port id="2" precision="FP32" names="628">
					<dim>8</dim>
					<dim>16</dim>
					<dim>64</dim>
				</port>
			</output>
		</layer>
		<layer id="418" name="654" type="MatMul" version="opset1">
			<data transpose_a="false" transpose_b="false" />
			<input>
				<port id="0" precision="FP32">
					<dim>8</dim>
					<dim>16</dim>
					<dim>16</dim>
				</port>
				<port id="1" precision="FP32">
					<dim>8</dim>
					<dim>16</dim>
					<dim>64</dim>
				</port>
			</input>
			<output>
				<port id="2" precision="FP32" names="654">
					<dim>8</dim>
					<dim>16</dim>
					<dim>64</dim>
				</port>
			</output>
		</layer>
		<layer id="419" name="655" type="Const" version="opset1">
			<data element_type="i64" shape="4" offset="1589354" size="32" />
			<output>
				<port id="0" precision="I64" names="655">
					<dim>4</dim>
				</port>
			</output>
		</layer>
		<layer id="420" name="656" type="Reshape" version="opset1">
			<data special_zero="true" />
			<input>
				<port id="0" precision="FP32">
					<dim>8</dim>
					<dim>16</dim>
					<dim>64</dim>
				</port>
				<port id="1" precision="I64">
					<dim>4</dim>
				</port>
			</input>
			<output>
				<port id="2" precision="FP32" names="656">
					<dim>8</dim>
					<dim>1</dim>
					<dim>16</dim>
					<dim>64</dim>
				</port>
			</output>
		</layer>
		<layer id="421" name="Constant_1132" type="Const" version="opset1">
			<data element_type="i64" shape="4" offset="1589386" size="32" />
			<output>
				<port id="0" precision="I64">
					<dim>4</dim>
				</port>
			</output>
		</layer>
		<layer id="422" name="657" type="Transpose" version="opset1">
			<input>
				<port id="0" precision="FP32">
					<dim>8</dim>
					<dim>1</dim>
					<dim>16</dim>
					<dim>64</dim>
				</port>
				<port id="1" precision="I64">
					<dim>4</dim>
				</port>
			</input>
			<output>
				<port id="2" precision="FP32" names="657">
					<dim>1</dim>
					<dim>16</dim>
					<dim>8</dim>
					<dim>64</dim>
				</port>
			</output>
		</layer>
		<layer id="423" name="658" type="Const" version="opset1">
			<data element_type="i64" shape="3" offset="1589418" size="24" />
			<output>
				<port id="0" precision="I64" names="658">
					<dim>3</dim>
				</port>
			</output>
		</layer>
		<layer id="424" name="660" type="Reshape" version="opset1">
			<data special_zero="true" />
			<input>
				<port id="0" precision="FP32">
					<dim>1</dim>
					<dim>16</dim>
					<dim>8</dim>
					<dim>64</dim>
				</port>
				<port id="1" precision="I64">
					<dim>3</dim>
				</port>
			</input>
			<output>
				<port id="2" precision="FP32" names="660">
					<dim>1</dim>
					<dim>16</dim>
					<dim>512</dim>
				</port>
			</output>
		</layer>
		<layer id="425" name="662" type="Add" version="opset1">
			<data auto_broadcast="numpy" />
			<input>
				<port id="0" precision="FP32">
					<dim>1</dim>
					<dim>16</dim>
					<dim>512</dim>
				</port>
				<port id="1" precision="FP32">
					<dim>1</dim>
					<dim>16</dim>
					<dim>512</dim>
				</port>
			</input>
			<output>
				<port id="2" precision="FP32" names="662">
					<dim>1</dim>
					<dim>16</dim>
					<dim>512</dim>
				</port>
			</output>
		</layer>
		<layer id="426" name="Constant_1144" type="Const" version="opset1">
			<data element_type="i64" shape="3" offset="1589442" size="24" />
			<output>
				<port id="0" precision="I64">
					<dim>3</dim>
				</port>
			</output>
		</layer>
		<layer id="427" name="663" type="Transpose" version="opset1">
			<input>
				<port id="0" precision="FP32">
					<dim>1</dim>
					<dim>16</dim>
					<dim>512</dim>
				</port>
				<port id="1" precision="I64">
					<dim>3</dim>
				</port>
			</input>
			<output>
				<port id="2" precision="FP32" names="663">
					<dim>1</dim>
					<dim>512</dim>
					<dim>16</dim>
				</port>
			</output>
		</layer>
		<layer id="428" name="242_compressed" type="Const" version="opset1">
			<data element_type="f16" shape="1024, 512, 1" offset="12608730" size="1048576" />
			<output>
				<port id="0" precision="FP16">
					<dim>1024</dim>
					<dim>512</dim>
					<dim>1</dim>
				</port>
			</output>
		</layer>
		<layer id="429" name="242" type="Convert" version="opset1">
			<data destination_type="f32" />
			<rt_info>
				<attribute name="decompression" version="0" />
			</rt_info>
			<input>
				<port id="0" precision="FP16">
					<dim>1024</dim>
					<dim>512</dim>
					<dim>1</dim>
				</port>
			</input>
			<output>
				<port id="1" precision="FP32" names="242">
					<dim>1024</dim>
					<dim>512</dim>
					<dim>1</dim>
				</port>
			</output>
		</layer>
		<layer id="430" name="664/WithoutBiases" type="Convolution" version="opset1">
			<data strides="1" dilations="1" pads_begin="0" pads_end="0" auto_pad="explicit" />
			<input>
				<port id="0" precision="FP32">
					<dim>1</dim>
					<dim>512</dim>
					<dim>16</dim>
				</port>
				<port id="1" precision="FP32">
					<dim>1024</dim>
					<dim>512</dim>
					<dim>1</dim>
				</port>
			</input>
			<output>
				<port id="2" precision="FP32">
					<dim>1</dim>
					<dim>1024</dim>
					<dim>16</dim>
				</port>
			</output>
		</layer>
		<layer id="431" name="Reshape_1157_compressed" type="Const" version="opset1">
			<data element_type="f16" shape="1, 1024, 1" offset="13657306" size="2048" />
			<output>
				<port id="0" precision="FP16">
					<dim>1</dim>
					<dim>1024</dim>
					<dim>1</dim>
				</port>
			</output>
		</layer>
		<layer id="432" name="Reshape_1157" type="Convert" version="opset1">
			<data destination_type="f32" />
			<rt_info>
				<attribute name="decompression" version="0" />
			</rt_info>
			<input>
				<port id="0" precision="FP16">
					<dim>1</dim>
					<dim>1024</dim>
					<dim>1</dim>
				</port>
			</input>
			<output>
				<port id="1" precision="FP32">
					<dim>1</dim>
					<dim>1024</dim>
					<dim>1</dim>
				</port>
			</output>
		</layer>
		<layer id="433" name="664" type="Add" version="opset1">
			<data auto_broadcast="numpy" />
			<input>
				<port id="0" precision="FP32">
					<dim>1</dim>
					<dim>1024</dim>
					<dim>16</dim>
				</port>
				<port id="1" precision="FP32">
					<dim>1</dim>
					<dim>1024</dim>
					<dim>1</dim>
				</port>
			</input>
			<output>
				<port id="2" precision="FP32" names="664">
					<dim>1</dim>
					<dim>1024</dim>
					<dim>16</dim>
				</port>
			</output>
		</layer>
		<layer id="434" name="665" type="ReLU" version="opset1">
			<input>
				<port id="0" precision="FP32">
					<dim>1</dim>
					<dim>1024</dim>
					<dim>16</dim>
				</port>
			</input>
			<output>
				<port id="1" precision="FP32" names="665">
					<dim>1</dim>
					<dim>1024</dim>
					<dim>16</dim>
				</port>
			</output>
		</layer>
		<layer id="435" name="244_compressed" type="Const" version="opset1">
			<data element_type="f16" shape="512, 1024, 1" offset="13659354" size="1048576" />
			<output>
				<port id="0" precision="FP16">
					<dim>512</dim>
					<dim>1024</dim>
					<dim>1</dim>
				</port>
			</output>
		</layer>
		<layer id="436" name="244" type="Convert" version="opset1">
			<data destination_type="f32" />
			<rt_info>
				<attribute name="decompression" version="0" />
			</rt_info>
			<input>
				<port id="0" precision="FP16">
					<dim>512</dim>
					<dim>1024</dim>
					<dim>1</dim>
				</port>
			</input>
			<output>
				<port id="1" precision="FP32" names="244">
					<dim>512</dim>
					<dim>1024</dim>
					<dim>1</dim>
				</port>
			</output>
		</layer>
		<layer id="437" name="666/WithoutBiases" type="Convolution" version="opset1">
			<data strides="1" dilations="1" pads_begin="0" pads_end="0" auto_pad="explicit" />
			<input>
				<port id="0" precision="FP32">
					<dim>1</dim>
					<dim>1024</dim>
					<dim>16</dim>
				</port>
				<port id="1" precision="FP32">
					<dim>512</dim>
					<dim>1024</dim>
					<dim>1</dim>
				</port>
			</input>
			<output>
				<port id="2" precision="FP32">
					<dim>1</dim>
					<dim>512</dim>
					<dim>16</dim>
				</port>
			</output>
		</layer>
		<layer id="438" name="Reshape_1173_compressed" type="Const" version="opset1">
			<data element_type="f16" shape="1, 512, 1" offset="14707930" size="1024" />
			<output>
				<port id="0" precision="FP16">
					<dim>1</dim>
					<dim>512</dim>
					<dim>1</dim>
				</port>
			</output>
		</layer>
		<layer id="439" name="Reshape_1173" type="Convert" version="opset1">
			<data destination_type="f32" />
			<rt_info>
				<attribute name="decompression" version="0" />
			</rt_info>
			<input>
				<port id="0" precision="FP16">
					<dim>1</dim>
					<dim>512</dim>
					<dim>1</dim>
				</port>
			</input>
			<output>
				<port id="1" precision="FP32">
					<dim>1</dim>
					<dim>512</dim>
					<dim>1</dim>
				</port>
			</output>
		</layer>
		<layer id="440" name="666" type="Add" version="opset1">
			<data auto_broadcast="numpy" />
			<input>
				<port id="0" precision="FP32">
					<dim>1</dim>
					<dim>512</dim>
					<dim>16</dim>
				</port>
				<port id="1" precision="FP32">
					<dim>1</dim>
					<dim>512</dim>
					<dim>1</dim>
				</port>
			</input>
			<output>
				<port id="2" precision="FP32" names="666">
					<dim>1</dim>
					<dim>512</dim>
					<dim>16</dim>
				</port>
			</output>
		</layer>
		<layer id="441" name="Constant_1177" type="Const" version="opset1">
			<data element_type="i64" shape="3" offset="1589442" size="24" />
			<output>
				<port id="0" precision="I64">
					<dim>3</dim>
				</port>
			</output>
		</layer>
		<layer id="442" name="668" type="Transpose" version="opset1">
			<input>
				<port id="0" precision="FP32">
					<dim>1</dim>
					<dim>512</dim>
					<dim>16</dim>
				</port>
				<port id="1" precision="I64">
					<dim>3</dim>
				</port>
			</input>
			<output>
				<port id="2" precision="FP32" names="668">
					<dim>1</dim>
					<dim>16</dim>
					<dim>512</dim>
				</port>
			</output>
		</layer>
		<layer id="443" name="670" type="Add" version="opset1">
			<data auto_broadcast="numpy" />
			<input>
				<port id="0" precision="FP32">
					<dim>1</dim>
					<dim>16</dim>
					<dim>512</dim>
				</port>
				<port id="1" precision="FP32">
					<dim>1</dim>
					<dim>16</dim>
					<dim>512</dim>
				</port>
			</input>
			<output>
				<port id="2" precision="FP32" names="670">
					<dim>1</dim>
					<dim>16</dim>
					<dim>512</dim>
				</port>
			</output>
		</layer>
		<layer id="444" name="246_compressed" type="Const" version="opset1">
			<data element_type="f16" shape="400, 512" offset="14708954" size="409600" />
			<output>
				<port id="0" precision="FP16">
					<dim>400</dim>
					<dim>512</dim>
				</port>
			</output>
		</layer>
		<layer id="445" name="246" type="Convert" version="opset1">
			<data destination_type="f32" />
			<rt_info>
				<attribute name="decompression" version="0" />
			</rt_info>
			<input>
				<port id="0" precision="FP16">
					<dim>400</dim>
					<dim>512</dim>
				</port>
			</input>
			<output>
				<port id="1" precision="FP32" names="246">
					<dim>400</dim>
					<dim>512</dim>
				</port>
			</output>
		</layer>
		<layer id="446" name="672" type="MatMul" version="opset1">
			<data transpose_a="false" transpose_b="true" />
			<input>
				<port id="0" precision="FP32">
					<dim>1</dim>
					<dim>16</dim>
					<dim>512</dim>
				</port>
				<port id="1" precision="FP32">
					<dim>400</dim>
					<dim>512</dim>
				</port>
			</input>
			<output>
				<port id="2" precision="FP32" names="672">
					<dim>1</dim>
					<dim>16</dim>
					<dim>400</dim>
				</port>
			</output>
		</layer>
		<layer id="447" name="Constant_5113_compressed" type="Const" version="opset1">
			<data element_type="f16" shape="1, 1, 400" offset="15118554" size="800" />
			<output>
				<port id="0" precision="FP16">
					<dim>1</dim>
					<dim>1</dim>
					<dim>400</dim>
				</port>
			</output>
		</layer>
		<layer id="448" name="Constant_5113" type="Convert" version="opset1">
			<data destination_type="f32" />
			<rt_info>
				<attribute name="decompression" version="0" />
			</rt_info>
			<input>
				<port id="0" precision="FP16">
					<dim>1</dim>
					<dim>1</dim>
					<dim>400</dim>
				</port>
			</input>
			<output>
				<port id="1" precision="FP32">
					<dim>1</dim>
					<dim>1</dim>
					<dim>400</dim>
				</port>
			</output>
		</layer>
		<layer id="449" name="673" type="Add" version="opset1">
			<data auto_broadcast="numpy" />
			<input>
				<port id="0" precision="FP32">
					<dim>1</dim>
					<dim>16</dim>
					<dim>400</dim>
				</port>
				<port id="1" precision="FP32">
					<dim>1</dim>
					<dim>1</dim>
					<dim>400</dim>
				</port>
			</input>
			<output>
				<port id="2" precision="FP32" names="673">
					<dim>1</dim>
					<dim>16</dim>
					<dim>400</dim>
				</port>
			</output>
		</layer>
		<layer id="450" name="Constant_1189" type="Const" version="opset1">
			<data element_type="i64" shape="1" offset="540728" size="8" />
			<output>
				<port id="0" precision="I64">
					<dim>1</dim>
				</port>
			</output>
		</layer>
		<layer id="451" name="674" type="ReduceMean" version="opset1">
			<data keep_dims="false" />
			<input>
				<port id="0" precision="FP32">
					<dim>1</dim>
					<dim>16</dim>
					<dim>400</dim>
				</port>
				<port id="1" precision="I64">
					<dim>1</dim>
				</port>
			</input>
			<output>
				<port id="2" precision="FP32" names="674">
					<dim>1</dim>
					<dim>400</dim>
				</port>
			</output>
		</layer>
		<layer id="452" name="674/sink_port_0" type="Result" version="opset1">
			<input>
				<port id="0" precision="FP32">
					<dim>1</dim>
					<dim>400</dim>
				</port>
			</input>
		</layer>
	</layers>
	<edges>
		<edge from-layer="0" from-port="0" to-layer="3" to-port="0" />
		<edge from-layer="1" from-port="0" to-layer="2" to-port="0" />
		<edge from-layer="2" from-port="1" to-layer="3" to-port="1" />
		<edge from-layer="3" from-port="2" to-layer="95" to-port="1" />
		<edge from-layer="3" from-port="2" to-layer="25" to-port="0" />
		<edge from-layer="3" from-port="2" to-layer="71" to-port="0" />
		<edge from-layer="3" from-port="2" to-layer="8" to-port="0" />
		<edge from-layer="3" from-port="2" to-layer="5" to-port="0" />
		<edge from-layer="4" from-port="0" to-layer="5" to-port="1" />
		<edge from-layer="5" from-port="2" to-layer="13" to-port="0" />
		<edge from-layer="6" from-port="0" to-layer="12" to-port="0" />
		<edge from-layer="7" from-port="0" to-layer="12" to-port="1" />
		<edge from-layer="8" from-port="1" to-layer="84" to-port="0" />
		<edge from-layer="8" from-port="1" to-layer="75" to-port="0" />
		<edge from-layer="8" from-port="1" to-layer="38" to-port="0" />
		<edge from-layer="8" from-port="1" to-layer="29" to-port="0" />
		<edge from-layer="8" from-port="1" to-layer="20" to-port="0" />
		<edge from-layer="8" from-port="1" to-layer="11" to-port="0" />
		<edge from-layer="9" from-port="0" to-layer="11" to-port="1" />
		<edge from-layer="10" from-port="0" to-layer="11" to-port="2" />
		<edge from-layer="10" from-port="0" to-layer="29" to-port="2" />
		<edge from-layer="10" from-port="0" to-layer="75" to-port="2" />
		<edge from-layer="11" from-port="3" to-layer="12" to-port="2" />
		<edge from-layer="12" from-port="3" to-layer="13" to-port="1" />
		<edge from-layer="13" from-port="2" to-layer="16" to-port="0" />
		<edge from-layer="14" from-port="0" to-layer="15" to-port="0" />
		<edge from-layer="15" from-port="1" to-layer="16" to-port="1" />
		<edge from-layer="16" from-port="2" to-layer="23" to-port="0" />
		<edge from-layer="17" from-port="0" to-layer="22" to-port="0" />
		<edge from-layer="18" from-port="0" to-layer="20" to-port="1" />
		<edge from-layer="19" from-port="0" to-layer="20" to-port="2" />
		<edge from-layer="20" from-port="3" to-layer="22" to-port="1" />
		<edge from-layer="21" from-port="0" to-layer="22" to-port="2" />
		<edge from-layer="22" from-port="3" to-layer="23" to-port="1" />
		<edge from-layer="23" from-port="2" to-layer="45" to-port="0" />
		<edge from-layer="24" from-port="0" to-layer="25" to-port="1" />
		<edge from-layer="25" from-port="2" to-layer="31" to-port="0" />
		<edge from-layer="26" from-port="0" to-layer="30" to-port="0" />
		<edge from-layer="27" from-port="0" to-layer="30" to-port="1" />
		<edge from-layer="28" from-port="0" to-layer="29" to-port="1" />
		<edge from-layer="29" from-port="3" to-layer="30" to-port="2" />
		<edge from-layer="30" from-port="3" to-layer="31" to-port="1" />
		<edge from-layer="31" from-port="2" to-layer="34" to-port="0" />
		<edge from-layer="32" from-port="0" to-layer="33" to-port="0" />
		<edge from-layer="33" from-port="1" to-layer="34" to-port="1" />
		<edge from-layer="34" from-port="2" to-layer="41" to-port="0" />
		<edge from-layer="35" from-port="0" to-layer="40" to-port="0" />
		<edge from-layer="36" from-port="0" to-layer="38" to-port="1" />
		<edge from-layer="37" from-port="0" to-layer="38" to-port="2" />
		<edge from-layer="38" from-port="3" to-layer="40" to-port="1" />
		<edge from-layer="39" from-port="0" to-layer="40" to-port="2" />
		<edge from-layer="40" from-port="3" to-layer="41" to-port="1" />
		<edge from-layer="41" from-port="2" to-layer="44" to-port="0" />
		<edge from-layer="42" from-port="0" to-layer="43" to-port="0" />
		<edge from-layer="43" from-port="1" to-layer="44" to-port="1" />
		<edge from-layer="44" from-port="2" to-layer="45" to-port="1" />
		<edge from-layer="45" from-port="2" to-layer="58" to-port="0" />
		<edge from-layer="45" from-port="2" to-layer="46" to-port="0" />
		<edge from-layer="46" from-port="1" to-layer="52" to-port="0" />
		<edge from-layer="46" from-port="1" to-layer="49" to-port="0" />
		<edge from-layer="46" from-port="1" to-layer="66" to-port="0" />
		<edge from-layer="47" from-port="0" to-layer="49" to-port="1" />
		<edge from-layer="48" from-port="0" to-layer="49" to-port="2" />
		<edge from-layer="49" from-port="3" to-layer="53" to-port="0" />
		<edge from-layer="50" from-port="0" to-layer="52" to-port="1" />
		<edge from-layer="51" from-port="0" to-layer="52" to-port="2" />
		<edge from-layer="52" from-port="3" to-layer="53" to-port="1" />
		<edge from-layer="53" from-port="2" to-layer="55" to-port="0" />
		<edge from-layer="54" from-port="0" to-layer="55" to-port="1" />
		<edge from-layer="55" from-port="2" to-layer="57" to-port="0" />
		<edge from-layer="56" from-port="0" to-layer="57" to-port="1" />
		<edge from-layer="57" from-port="2" to-layer="58" to-port="1" />
		<edge from-layer="58" from-port="2" to-layer="62" to-port="0" />
		<edge from-layer="58" from-port="2" to-layer="60" to-port="0" />
		<edge from-layer="59" from-port="0" to-layer="60" to-port="1" />
		<edge from-layer="60" from-port="2" to-layer="61" to-port="0" />
		<edge from-layer="61" from-port="1" to-layer="63" to-port="0" />
		<edge from-layer="62" from-port="1" to-layer="63" to-port="1" />
		<edge from-layer="63" from-port="2" to-layer="69" to-port="0" />
		<edge from-layer="64" from-port="0" to-layer="66" to-port="1" />
		<edge from-layer="65" from-port="0" to-layer="66" to-port="2" />
		<edge from-layer="66" from-port="3" to-layer="68" to-port="0" />
		<edge from-layer="67" from-port="0" to-layer="68" to-port="1" />
		<edge from-layer="68" from-port="2" to-layer="69" to-port="1" />
		<edge from-layer="69" from-port="2" to-layer="88" to-port="0" />
		<edge from-layer="70" from-port="0" to-layer="71" to-port="1" />
		<edge from-layer="71" from-port="2" to-layer="77" to-port="0" />
		<edge from-layer="72" from-port="0" to-layer="76" to-port="0" />
		<edge from-layer="73" from-port="0" to-layer="76" to-port="1" />
		<edge from-layer="74" from-port="0" to-layer="75" to-port="1" />
		<edge from-layer="75" from-port="3" to-layer="76" to-port="2" />
		<edge from-layer="76" from-port="3" to-layer="77" to-port="1" />
		<edge from-layer="77" from-port="2" to-layer="80" to-port="0" />
		<edge from-layer="78" from-port="0" to-layer="79" to-port="0" />
		<edge from-layer="79" from-port="1" to-layer="80" to-port="1" />
		<edge from-layer="80" from-port="2" to-layer="87" to-port="0" />
		<edge from-layer="81" from-port="0" to-layer="86" to-port="0" />
		<edge from-layer="82" from-port="0" to-layer="84" to-port="1" />
		<edge from-layer="83" from-port="0" to-layer="84" to-port="2" />
		<edge from-layer="84" from-port="3" to-layer="86" to-port="1" />
		<edge from-layer="85" from-port="0" to-layer="86" to-port="2" />
		<edge from-layer="86" from-port="3" to-layer="87" to-port="1" />
		<edge from-layer="87" from-port="2" to-layer="88" to-port="1" />
		<edge from-layer="88" from-port="2" to-layer="90" to-port="0" />
		<edge from-layer="89" from-port="0" to-layer="90" to-port="1" />
		<edge from-layer="90" from-port="2" to-layer="92" to-port="0" />
		<edge from-layer="91" from-port="0" to-layer="92" to-port="1" />
		<edge from-layer="92" from-port="2" to-layer="94" to-port="0" />
		<edge from-layer="93" from-port="0" to-layer="94" to-port="1" />
		<edge from-layer="94" from-port="2" to-layer="95" to-port="0" />
		<edge from-layer="95" from-port="2" to-layer="97" to-port="0" />
		<edge from-layer="95" from-port="2" to-layer="113" to-port="1" />
		<edge from-layer="96" from-port="0" to-layer="97" to-port="1" />
		<edge from-layer="97" from-port="2" to-layer="100" to-port="0" />
		<edge from-layer="98" from-port="0" to-layer="99" to-port="0" />
		<edge from-layer="99" from-port="1" to-layer="100" to-port="1" />
		<edge from-layer="100" from-port="2" to-layer="103" to-port="0" />
		<edge from-layer="101" from-port="0" to-layer="102" to-port="0" />
		<edge from-layer="102" from-port="1" to-layer="103" to-port="1" />
		<edge from-layer="103" from-port="2" to-layer="104" to-port="0" />
		<edge from-layer="104" from-port="1" to-layer="107" to-port="0" />
		<edge from-layer="105" from-port="0" to-layer="106" to-port="0" />
		<edge from-layer="106" from-port="1" to-layer="107" to-port="1" />
		<edge from-layer="107" from-port="2" to-layer="110" to-port="0" />
		<edge from-layer="108" from-port="0" to-layer="109" to-port="0" />
		<edge from-layer="109" from-port="1" to-layer="110" to-port="1" />
		<edge from-layer="110" from-port="2" to-layer="112" to-port="0" />
		<edge from-layer="111" from-port="0" to-layer="112" to-port="1" />
		<edge from-layer="112" from-port="2" to-layer="113" to-port="0" />
		<edge from-layer="113" from-port="2" to-layer="135" to-port="0" />
		<edge from-layer="113" from-port="2" to-layer="181" to-port="0" />
		<edge from-layer="113" from-port="2" to-layer="205" to-port="1" />
		<edge from-layer="113" from-port="2" to-layer="118" to-port="0" />
		<edge from-layer="113" from-port="2" to-layer="115" to-port="0" />
		<edge from-layer="114" from-port="0" to-layer="115" to-port="1" />
		<edge from-layer="115" from-port="2" to-layer="123" to-port="0" />
		<edge from-layer="116" from-port="0" to-layer="122" to-port="0" />
		<edge from-layer="117" from-port="0" to-layer="122" to-port="1" />
		<edge from-layer="118" from-port="1" to-layer="121" to-port="0" />
		<edge from-layer="118" from-port="1" to-layer="194" to-port="0" />
		<edge from-layer="118" from-port="1" to-layer="185" to-port="0" />
		<edge from-layer="118" from-port="1" to-layer="130" to-port="0" />
		<edge from-layer="118" from-port="1" to-layer="148" to-port="0" />
		<edge from-layer="118" from-port="1" to-layer="139" to-port="0" />
		<edge from-layer="119" from-port="0" to-layer="121" to-port="1" />
		<edge from-layer="120" from-port="0" to-layer="121" to-port="2" />
		<edge from-layer="120" from-port="0" to-layer="185" to-port="2" />
		<edge from-layer="120" from-port="0" to-layer="139" to-port="2" />
		<edge from-layer="121" from-port="3" to-layer="122" to-port="2" />
		<edge from-layer="122" from-port="3" to-layer="123" to-port="1" />
		<edge from-layer="123" from-port="2" to-layer="126" to-port="0" />
		<edge from-layer="124" from-port="0" to-layer="125" to-port="0" />
		<edge from-layer="125" from-port="1" to-layer="126" to-port="1" />
		<edge from-layer="126" from-port="2" to-layer="133" to-port="0" />
		<edge from-layer="127" from-port="0" to-layer="132" to-port="0" />
		<edge from-layer="128" from-port="0" to-layer="130" to-port="1" />
		<edge from-layer="129" from-port="0" to-layer="130" to-port="2" />
		<edge from-layer="130" from-port="3" to-layer="132" to-port="1" />
		<edge from-layer="131" from-port="0" to-layer="132" to-port="2" />
		<edge from-layer="132" from-port="3" to-layer="133" to-port="1" />
		<edge from-layer="133" from-port="2" to-layer="155" to-port="0" />
		<edge from-layer="134" from-port="0" to-layer="135" to-port="1" />
		<edge from-layer="135" from-port="2" to-layer="141" to-port="0" />
		<edge from-layer="136" from-port="0" to-layer="140" to-port="0" />
		<edge from-layer="137" from-port="0" to-layer="140" to-port="1" />
		<edge from-layer="138" from-port="0" to-layer="139" to-port="1" />
		<edge from-layer="139" from-port="3" to-layer="140" to-port="2" />
		<edge from-layer="140" from-port="3" to-layer="141" to-port="1" />
		<edge from-layer="141" from-port="2" to-layer="144" to-port="0" />
		<edge from-layer="142" from-port="0" to-layer="143" to-port="0" />
		<edge from-layer="143" from-port="1" to-layer="144" to-port="1" />
		<edge from-layer="144" from-port="2" to-layer="151" to-port="0" />
		<edge from-layer="145" from-port="0" to-layer="150" to-port="0" />
		<edge from-layer="146" from-port="0" to-layer="148" to-port="1" />
		<edge from-layer="147" from-port="0" to-layer="148" to-port="2" />
		<edge from-layer="148" from-port="3" to-layer="150" to-port="1" />
		<edge from-layer="149" from-port="0" to-layer="150" to-port="2" />
		<edge from-layer="150" from-port="3" to-layer="151" to-port="1" />
		<edge from-layer="151" from-port="2" to-layer="154" to-port="0" />
		<edge from-layer="152" from-port="0" to-layer="153" to-port="0" />
		<edge from-layer="153" from-port="1" to-layer="154" to-port="1" />
		<edge from-layer="154" from-port="2" to-layer="155" to-port="1" />
		<edge from-layer="155" from-port="2" to-layer="156" to-port="0" />
		<edge from-layer="155" from-port="2" to-layer="168" to-port="0" />
		<edge from-layer="156" from-port="1" to-layer="162" to-port="0" />
		<edge from-layer="156" from-port="1" to-layer="159" to-port="0" />
		<edge from-layer="156" from-port="1" to-layer="176" to-port="0" />
		<edge from-layer="157" from-port="0" to-layer="159" to-port="1" />
		<edge from-layer="158" from-port="0" to-layer="159" to-port="2" />
		<edge from-layer="159" from-port="3" to-layer="163" to-port="0" />
		<edge from-layer="160" from-port="0" to-layer="162" to-port="1" />
		<edge from-layer="161" from-port="0" to-layer="162" to-port="2" />
		<edge from-layer="162" from-port="3" to-layer="163" to-port="1" />
		<edge from-layer="163" from-port="2" to-layer="165" to-port="0" />
		<edge from-layer="164" from-port="0" to-layer="165" to-port="1" />
		<edge from-layer="165" from-port="2" to-layer="167" to-port="0" />
		<edge from-layer="166" from-port="0" to-layer="167" to-port="1" />
		<edge from-layer="167" from-port="2" to-layer="168" to-port="1" />
		<edge from-layer="168" from-port="2" to-layer="172" to-port="0" />
		<edge from-layer="168" from-port="2" to-layer="170" to-port="0" />
		<edge from-layer="169" from-port="0" to-layer="170" to-port="1" />
		<edge from-layer="170" from-port="2" to-layer="171" to-port="0" />
		<edge from-layer="171" from-port="1" to-layer="173" to-port="0" />
		<edge from-layer="172" from-port="1" to-layer="173" to-port="1" />
		<edge from-layer="173" from-port="2" to-layer="179" to-port="0" />
		<edge from-layer="174" from-port="0" to-layer="176" to-port="1" />
		<edge from-layer="175" from-port="0" to-layer="176" to-port="2" />
		<edge from-layer="176" from-port="3" to-layer="178" to-port="0" />
		<edge from-layer="177" from-port="0" to-layer="178" to-port="1" />
		<edge from-layer="178" from-port="2" to-layer="179" to-port="1" />
		<edge from-layer="179" from-port="2" to-layer="198" to-port="0" />
		<edge from-layer="180" from-port="0" to-layer="181" to-port="1" />
		<edge from-layer="181" from-port="2" to-layer="187" to-port="0" />
		<edge from-layer="182" from-port="0" to-layer="186" to-port="0" />
		<edge from-layer="183" from-port="0" to-layer="186" to-port="1" />
		<edge from-layer="184" from-port="0" to-layer="185" to-port="1" />
		<edge from-layer="185" from-port="3" to-layer="186" to-port="2" />
		<edge from-layer="186" from-port="3" to-layer="187" to-port="1" />
		<edge from-layer="187" from-port="2" to-layer="190" to-port="0" />
		<edge from-layer="188" from-port="0" to-layer="189" to-port="0" />
		<edge from-layer="189" from-port="1" to-layer="190" to-port="1" />
		<edge from-layer="190" from-port="2" to-layer="197" to-port="0" />
		<edge from-layer="191" from-port="0" to-layer="196" to-port="0" />
		<edge from-layer="192" from-port="0" to-layer="194" to-port="1" />
		<edge from-layer="193" from-port="0" to-layer="194" to-port="2" />
		<edge from-layer="194" from-port="3" to-layer="196" to-port="1" />
		<edge from-layer="195" from-port="0" to-layer="196" to-port="2" />
		<edge from-layer="196" from-port="3" to-layer="197" to-port="1" />
		<edge from-layer="197" from-port="2" to-layer="198" to-port="1" />
		<edge from-layer="198" from-port="2" to-layer="200" to-port="0" />
		<edge from-layer="199" from-port="0" to-layer="200" to-port="1" />
		<edge from-layer="200" from-port="2" to-layer="202" to-port="0" />
		<edge from-layer="201" from-port="0" to-layer="202" to-port="1" />
		<edge from-layer="202" from-port="2" to-layer="204" to-port="0" />
		<edge from-layer="203" from-port="0" to-layer="204" to-port="1" />
		<edge from-layer="204" from-port="2" to-layer="205" to-port="0" />
		<edge from-layer="205" from-port="2" to-layer="207" to-port="0" />
		<edge from-layer="205" from-port="2" to-layer="223" to-port="1" />
		<edge from-layer="206" from-port="0" to-layer="207" to-port="1" />
		<edge from-layer="207" from-port="2" to-layer="210" to-port="0" />
		<edge from-layer="208" from-port="0" to-layer="209" to-port="0" />
		<edge from-layer="209" from-port="1" to-layer="210" to-port="1" />
		<edge from-layer="210" from-port="2" to-layer="213" to-port="0" />
		<edge from-layer="211" from-port="0" to-layer="212" to-port="0" />
		<edge from-layer="212" from-port="1" to-layer="213" to-port="1" />
		<edge from-layer="213" from-port="2" to-layer="214" to-port="0" />
		<edge from-layer="214" from-port="1" to-layer="217" to-port="0" />
		<edge from-layer="215" from-port="0" to-layer="216" to-port="0" />
		<edge from-layer="216" from-port="1" to-layer="217" to-port="1" />
		<edge from-layer="217" from-port="2" to-layer="220" to-port="0" />
		<edge from-layer="218" from-port="0" to-layer="219" to-port="0" />
		<edge from-layer="219" from-port="1" to-layer="220" to-port="1" />
		<edge from-layer="220" from-port="2" to-layer="222" to-port="0" />
		<edge from-layer="221" from-port="0" to-layer="222" to-port="1" />
		<edge from-layer="222" from-port="2" to-layer="223" to-port="0" />
		<edge from-layer="223" from-port="2" to-layer="245" to-port="0" />
		<edge from-layer="223" from-port="2" to-layer="291" to-port="0" />
		<edge from-layer="223" from-port="2" to-layer="315" to-port="1" />
		<edge from-layer="223" from-port="2" to-layer="228" to-port="0" />
		<edge from-layer="223" from-port="2" to-layer="225" to-port="0" />
		<edge from-layer="224" from-port="0" to-layer="225" to-port="1" />
		<edge from-layer="225" from-port="2" to-layer="233" to-port="0" />
		<edge from-layer="226" from-port="0" to-layer="232" to-port="0" />
		<edge from-layer="227" from-port="0" to-layer="232" to-port="1" />
		<edge from-layer="228" from-port="1" to-layer="231" to-port="0" />
		<edge from-layer="228" from-port="1" to-layer="304" to-port="0" />
		<edge from-layer="228" from-port="1" to-layer="295" to-port="0" />
		<edge from-layer="228" from-port="1" to-layer="258" to-port="0" />
		<edge from-layer="228" from-port="1" to-layer="249" to-port="0" />
		<edge from-layer="228" from-port="1" to-layer="240" to-port="0" />
		<edge from-layer="229" from-port="0" to-layer="231" to-port="1" />
		<edge from-layer="230" from-port="0" to-layer="295" to-port="2" />
		<edge from-layer="230" from-port="0" to-layer="231" to-port="2" />
		<edge from-layer="230" from-port="0" to-layer="249" to-port="2" />
		<edge from-layer="231" from-port="3" to-layer="232" to-port="2" />
		<edge from-layer="232" from-port="3" to-layer="233" to-port="1" />
		<edge from-layer="233" from-port="2" to-layer="236" to-port="0" />
		<edge from-layer="234" from-port="0" to-layer="235" to-port="0" />
		<edge from-layer="235" from-port="1" to-layer="236" to-port="1" />
		<edge from-layer="236" from-port="2" to-layer="243" to-port="0" />
		<edge from-layer="237" from-port="0" to-layer="242" to-port="0" />
		<edge from-layer="238" from-port="0" to-layer="240" to-port="1" />
		<edge from-layer="239" from-port="0" to-layer="240" to-port="2" />
		<edge from-layer="240" from-port="3" to-layer="242" to-port="1" />
		<edge from-layer="241" from-port="0" to-layer="242" to-port="2" />
		<edge from-layer="242" from-port="3" to-layer="243" to-port="1" />
		<edge from-layer="243" from-port="2" to-layer="265" to-port="0" />
		<edge from-layer="244" from-port="0" to-layer="245" to-port="1" />
		<edge from-layer="245" from-port="2" to-layer="251" to-port="0" />
		<edge from-layer="246" from-port="0" to-layer="250" to-port="0" />
		<edge from-layer="247" from-port="0" to-layer="250" to-port="1" />
		<edge from-layer="248" from-port="0" to-layer="249" to-port="1" />
		<edge from-layer="249" from-port="3" to-layer="250" to-port="2" />
		<edge from-layer="250" from-port="3" to-layer="251" to-port="1" />
		<edge from-layer="251" from-port="2" to-layer="254" to-port="0" />
		<edge from-layer="252" from-port="0" to-layer="253" to-port="0" />
		<edge from-layer="253" from-port="1" to-layer="254" to-port="1" />
		<edge from-layer="254" from-port="2" to-layer="261" to-port="0" />
		<edge from-layer="255" from-port="0" to-layer="260" to-port="0" />
		<edge from-layer="256" from-port="0" to-layer="258" to-port="1" />
		<edge from-layer="257" from-port="0" to-layer="258" to-port="2" />
		<edge from-layer="258" from-port="3" to-layer="260" to-port="1" />
		<edge from-layer="259" from-port="0" to-layer="260" to-port="2" />
		<edge from-layer="260" from-port="3" to-layer="261" to-port="1" />
		<edge from-layer="261" from-port="2" to-layer="264" to-port="0" />
		<edge from-layer="262" from-port="0" to-layer="263" to-port="0" />
		<edge from-layer="263" from-port="1" to-layer="264" to-port="1" />
		<edge from-layer="264" from-port="2" to-layer="265" to-port="1" />
		<edge from-layer="265" from-port="2" to-layer="266" to-port="0" />
		<edge from-layer="265" from-port="2" to-layer="278" to-port="0" />
		<edge from-layer="266" from-port="1" to-layer="269" to-port="0" />
		<edge from-layer="266" from-port="1" to-layer="286" to-port="0" />
		<edge from-layer="266" from-port="1" to-layer="272" to-port="0" />
		<edge from-layer="267" from-port="0" to-layer="269" to-port="1" />
		<edge from-layer="268" from-port="0" to-layer="269" to-port="2" />
		<edge from-layer="269" from-port="3" to-layer="273" to-port="0" />
		<edge from-layer="270" from-port="0" to-layer="272" to-port="1" />
		<edge from-layer="271" from-port="0" to-layer="272" to-port="2" />
		<edge from-layer="272" from-port="3" to-layer="273" to-port="1" />
		<edge from-layer="273" from-port="2" to-layer="275" to-port="0" />
		<edge from-layer="274" from-port="0" to-layer="275" to-port="1" />
		<edge from-layer="275" from-port="2" to-layer="277" to-port="0" />
		<edge from-layer="276" from-port="0" to-layer="277" to-port="1" />
		<edge from-layer="277" from-port="2" to-layer="278" to-port="1" />
		<edge from-layer="278" from-port="2" to-layer="282" to-port="0" />
		<edge from-layer="278" from-port="2" to-layer="280" to-port="0" />
		<edge from-layer="279" from-port="0" to-layer="280" to-port="1" />
		<edge from-layer="280" from-port="2" to-layer="281" to-port="0" />
		<edge from-layer="281" from-port="1" to-layer="283" to-port="0" />
		<edge from-layer="282" from-port="1" to-layer="283" to-port="1" />
		<edge from-layer="283" from-port="2" to-layer="289" to-port="0" />
		<edge from-layer="284" from-port="0" to-layer="286" to-port="1" />
		<edge from-layer="285" from-port="0" to-layer="286" to-port="2" />
		<edge from-layer="286" from-port="3" to-layer="288" to-port="0" />
		<edge from-layer="287" from-port="0" to-layer="288" to-port="1" />
		<edge from-layer="288" from-port="2" to-layer="289" to-port="1" />
		<edge from-layer="289" from-port="2" to-layer="308" to-port="0" />
		<edge from-layer="290" from-port="0" to-layer="291" to-port="1" />
		<edge from-layer="291" from-port="2" to-layer="297" to-port="0" />
		<edge from-layer="292" from-port="0" to-layer="296" to-port="0" />
		<edge from-layer="293" from-port="0" to-layer="296" to-port="1" />
		<edge from-layer="294" from-port="0" to-layer="295" to-port="1" />
		<edge from-layer="295" from-port="3" to-layer="296" to-port="2" />
		<edge from-layer="296" from-port="3" to-layer="297" to-port="1" />
		<edge from-layer="297" from-port="2" to-layer="300" to-port="0" />
		<edge from-layer="298" from-port="0" to-layer="299" to-port="0" />
		<edge from-layer="299" from-port="1" to-layer="300" to-port="1" />
		<edge from-layer="300" from-port="2" to-layer="307" to-port="0" />
		<edge from-layer="301" from-port="0" to-layer="306" to-port="0" />
		<edge from-layer="302" from-port="0" to-layer="304" to-port="1" />
		<edge from-layer="303" from-port="0" to-layer="304" to-port="2" />
		<edge from-layer="304" from-port="3" to-layer="306" to-port="1" />
		<edge from-layer="305" from-port="0" to-layer="306" to-port="2" />
		<edge from-layer="306" from-port="3" to-layer="307" to-port="1" />
		<edge from-layer="307" from-port="2" to-layer="308" to-port="1" />
		<edge from-layer="308" from-port="2" to-layer="310" to-port="0" />
		<edge from-layer="309" from-port="0" to-layer="310" to-port="1" />
		<edge from-layer="310" from-port="2" to-layer="312" to-port="0" />
		<edge from-layer="311" from-port="0" to-layer="312" to-port="1" />
		<edge from-layer="312" from-port="2" to-layer="314" to-port="0" />
		<edge from-layer="313" from-port="0" to-layer="314" to-port="1" />
		<edge from-layer="314" from-port="2" to-layer="315" to-port="0" />
		<edge from-layer="315" from-port="2" to-layer="317" to-port="0" />
		<edge from-layer="315" from-port="2" to-layer="333" to-port="1" />
		<edge from-layer="316" from-port="0" to-layer="317" to-port="1" />
		<edge from-layer="317" from-port="2" to-layer="320" to-port="0" />
		<edge from-layer="318" from-port="0" to-layer="319" to-port="0" />
		<edge from-layer="319" from-port="1" to-layer="320" to-port="1" />
		<edge from-layer="320" from-port="2" to-layer="323" to-port="0" />
		<edge from-layer="321" from-port="0" to-layer="322" to-port="0" />
		<edge from-layer="322" from-port="1" to-layer="323" to-port="1" />
		<edge from-layer="323" from-port="2" to-layer="324" to-port="0" />
		<edge from-layer="324" from-port="1" to-layer="327" to-port="0" />
		<edge from-layer="325" from-port="0" to-layer="326" to-port="0" />
		<edge from-layer="326" from-port="1" to-layer="327" to-port="1" />
		<edge from-layer="327" from-port="2" to-layer="330" to-port="0" />
		<edge from-layer="328" from-port="0" to-layer="329" to-port="0" />
		<edge from-layer="329" from-port="1" to-layer="330" to-port="1" />
		<edge from-layer="330" from-port="2" to-layer="332" to-port="0" />
		<edge from-layer="331" from-port="0" to-layer="332" to-port="1" />
		<edge from-layer="332" from-port="2" to-layer="333" to-port="0" />
		<edge from-layer="333" from-port="2" to-layer="355" to-port="0" />
		<edge from-layer="333" from-port="2" to-layer="401" to-port="0" />
		<edge from-layer="333" from-port="2" to-layer="425" to-port="1" />
		<edge from-layer="333" from-port="2" to-layer="338" to-port="0" />
		<edge from-layer="333" from-port="2" to-layer="335" to-port="0" />
		<edge from-layer="334" from-port="0" to-layer="335" to-port="1" />
		<edge from-layer="335" from-port="2" to-layer="343" to-port="0" />
		<edge from-layer="336" from-port="0" to-layer="342" to-port="0" />
		<edge from-layer="337" from-port="0" to-layer="342" to-port="1" />
		<edge from-layer="338" from-port="1" to-layer="350" to-port="0" />
		<edge from-layer="338" from-port="1" to-layer="359" to-port="0" />
		<edge from-layer="338" from-port="1" to-layer="368" to-port="0" />
		<edge from-layer="338" from-port="1" to-layer="405" to-port="0" />
		<edge from-layer="338" from-port="1" to-layer="414" to-port="0" />
		<edge from-layer="338" from-port="1" to-layer="341" to-port="0" />
		<edge from-layer="339" from-port="0" to-layer="341" to-port="1" />
		<edge from-layer="340" from-port="0" to-layer="341" to-port="2" />
		<edge from-layer="340" from-port="0" to-layer="405" to-port="2" />
		<edge from-layer="340" from-port="0" to-layer="359" to-port="2" />
		<edge from-layer="341" from-port="3" to-layer="342" to-port="2" />
		<edge from-layer="342" from-port="3" to-layer="343" to-port="1" />
		<edge from-layer="343" from-port="2" to-layer="346" to-port="0" />
		<edge from-layer="344" from-port="0" to-layer="345" to-port="0" />
		<edge from-layer="345" from-port="1" to-layer="346" to-port="1" />
		<edge from-layer="346" from-port="2" to-layer="353" to-port="0" />
		<edge from-layer="347" from-port="0" to-layer="352" to-port="0" />
		<edge from-layer="348" from-port="0" to-layer="350" to-port="1" />
		<edge from-layer="349" from-port="0" to-layer="350" to-port="2" />
		<edge from-layer="350" from-port="3" to-layer="352" to-port="1" />
		<edge from-layer="351" from-port="0" to-layer="352" to-port="2" />
		<edge from-layer="352" from-port="3" to-layer="353" to-port="1" />
		<edge from-layer="353" from-port="2" to-layer="375" to-port="0" />
		<edge from-layer="354" from-port="0" to-layer="355" to-port="1" />
		<edge from-layer="355" from-port="2" to-layer="361" to-port="0" />
		<edge from-layer="356" from-port="0" to-layer="360" to-port="0" />
		<edge from-layer="357" from-port="0" to-layer="360" to-port="1" />
		<edge from-layer="358" from-port="0" to-layer="359" to-port="1" />
		<edge from-layer="359" from-port="3" to-layer="360" to-port="2" />
		<edge from-layer="360" from-port="3" to-layer="361" to-port="1" />
		<edge from-layer="361" from-port="2" to-layer="364" to-port="0" />
		<edge from-layer="362" from-port="0" to-layer="363" to-port="0" />
		<edge from-layer="363" from-port="1" to-layer="364" to-port="1" />
		<edge from-layer="364" from-port="2" to-layer="371" to-port="0" />
		<edge from-layer="365" from-port="0" to-layer="370" to-port="0" />
		<edge from-layer="366" from-port="0" to-layer="368" to-port="1" />
		<edge from-layer="367" from-port="0" to-layer="368" to-port="2" />
		<edge from-layer="368" from-port="3" to-layer="370" to-port="1" />
		<edge from-layer="369" from-port="0" to-layer="370" to-port="2" />
		<edge from-layer="370" from-port="3" to-layer="371" to-port="1" />
		<edge from-layer="371" from-port="2" to-layer="374" to-port="0" />
		<edge from-layer="372" from-port="0" to-layer="373" to-port="0" />
		<edge from-layer="373" from-port="1" to-layer="374" to-port="1" />
		<edge from-layer="374" from-port="2" to-layer="375" to-port="1" />
		<edge from-layer="375" from-port="2" to-layer="376" to-port="0" />
		<edge from-layer="375" from-port="2" to-layer="388" to-port="0" />
		<edge from-layer="376" from-port="1" to-layer="396" to-port="0" />
		<edge from-layer="376" from-port="1" to-layer="382" to-port="0" />
		<edge from-layer="376" from-port="1" to-layer="379" to-port="0" />
		<edge from-layer="377" from-port="0" to-layer="379" to-port="1" />
		<edge from-layer="378" from-port="0" to-layer="379" to-port="2" />
		<edge from-layer="379" from-port="3" to-layer="383" to-port="0" />
		<edge from-layer="380" from-port="0" to-layer="382" to-port="1" />
		<edge from-layer="381" from-port="0" to-layer="382" to-port="2" />
		<edge from-layer="382" from-port="3" to-layer="383" to-port="1" />
		<edge from-layer="383" from-port="2" to-layer="385" to-port="0" />
		<edge from-layer="384" from-port="0" to-layer="385" to-port="1" />
		<edge from-layer="385" from-port="2" to-layer="387" to-port="0" />
		<edge from-layer="386" from-port="0" to-layer="387" to-port="1" />
		<edge from-layer="387" from-port="2" to-layer="388" to-port="1" />
		<edge from-layer="388" from-port="2" to-layer="392" to-port="0" />
		<edge from-layer="388" from-port="2" to-layer="390" to-port="0" />
		<edge from-layer="389" from-port="0" to-layer="390" to-port="1" />
		<edge from-layer="390" from-port="2" to-layer="391" to-port="0" />
		<edge from-layer="391" from-port="1" to-layer="393" to-port="0" />
		<edge from-layer="392" from-port="1" to-layer="393" to-port="1" />
		<edge from-layer="393" from-port="2" to-layer="399" to-port="0" />
		<edge from-layer="394" from-port="0" to-layer="396" to-port="1" />
		<edge from-layer="395" from-port="0" to-layer="396" to-port="2" />
		<edge from-layer="396" from-port="3" to-layer="398" to-port="0" />
		<edge from-layer="397" from-port="0" to-layer="398" to-port="1" />
		<edge from-layer="398" from-port="2" to-layer="399" to-port="1" />
		<edge from-layer="399" from-port="2" to-layer="418" to-port="0" />
		<edge from-layer="400" from-port="0" to-layer="401" to-port="1" />
		<edge from-layer="401" from-port="2" to-layer="407" to-port="0" />
		<edge from-layer="402" from-port="0" to-layer="406" to-port="0" />
		<edge from-layer="403" from-port="0" to-layer="406" to-port="1" />
		<edge from-layer="404" from-port="0" to-layer="405" to-port="1" />
		<edge from-layer="405" from-port="3" to-layer="406" to-port="2" />
		<edge from-layer="406" from-port="3" to-layer="407" to-port="1" />
		<edge from-layer="407" from-port="2" to-layer="410" to-port="0" />
		<edge from-layer="408" from-port="0" to-layer="409" to-port="0" />
		<edge from-layer="409" from-port="1" to-layer="410" to-port="1" />
		<edge from-layer="410" from-port="2" to-layer="417" to-port="0" />
		<edge from-layer="411" from-port="0" to-layer="416" to-port="0" />
		<edge from-layer="412" from-port="0" to-layer="414" to-port="1" />
		<edge from-layer="413" from-port="0" to-layer="414" to-port="2" />
		<edge from-layer="414" from-port="3" to-layer="416" to-port="1" />
		<edge from-layer="415" from-port="0" to-layer="416" to-port="2" />
		<edge from-layer="416" from-port="3" to-layer="417" to-port="1" />
		<edge from-layer="417" from-port="2" to-layer="418" to-port="1" />
		<edge from-layer="418" from-port="2" to-layer="420" to-port="0" />
		<edge from-layer="419" from-port="0" to-layer="420" to-port="1" />
		<edge from-layer="420" from-port="2" to-layer="422" to-port="0" />
		<edge from-layer="421" from-port="0" to-layer="422" to-port="1" />
		<edge from-layer="422" from-port="2" to-layer="424" to-port="0" />
		<edge from-layer="423" from-port="0" to-layer="424" to-port="1" />
		<edge from-layer="424" from-port="2" to-layer="425" to-port="0" />
		<edge from-layer="425" from-port="2" to-layer="427" to-port="0" />
		<edge from-layer="425" from-port="2" to-layer="443" to-port="1" />
		<edge from-layer="426" from-port="0" to-layer="427" to-port="1" />
		<edge from-layer="427" from-port="2" to-layer="430" to-port="0" />
		<edge from-layer="428" from-port="0" to-layer="429" to-port="0" />
		<edge from-layer="429" from-port="1" to-layer="430" to-port="1" />
		<edge from-layer="430" from-port="2" to-layer="433" to-port="0" />
		<edge from-layer="431" from-port="0" to-layer="432" to-port="0" />
		<edge from-layer="432" from-port="1" to-layer="433" to-port="1" />
		<edge from-layer="433" from-port="2" to-layer="434" to-port="0" />
		<edge from-layer="434" from-port="1" to-layer="437" to-port="0" />
		<edge from-layer="435" from-port="0" to-layer="436" to-port="0" />
		<edge from-layer="436" from-port="1" to-layer="437" to-port="1" />
		<edge from-layer="437" from-port="2" to-layer="440" to-port="0" />
		<edge from-layer="438" from-port="0" to-layer="439" to-port="0" />
		<edge from-layer="439" from-port="1" to-layer="440" to-port="1" />
		<edge from-layer="440" from-port="2" to-layer="442" to-port="0" />
		<edge from-layer="441" from-port="0" to-layer="442" to-port="1" />
		<edge from-layer="442" from-port="2" to-layer="443" to-port="0" />
		<edge from-layer="443" from-port="2" to-layer="446" to-port="0" />
		<edge from-layer="444" from-port="0" to-layer="445" to-port="0" />
		<edge from-layer="445" from-port="1" to-layer="446" to-port="1" />
		<edge from-layer="446" from-port="2" to-layer="449" to-port="0" />
		<edge from-layer="447" from-port="0" to-layer="448" to-port="0" />
		<edge from-layer="448" from-port="1" to-layer="449" to-port="1" />
		<edge from-layer="449" from-port="2" to-layer="451" to-port="0" />
		<edge from-layer="450" from-port="0" to-layer="451" to-port="1" />
		<edge from-layer="451" from-port="2" to-layer="452" to-port="0" />
	</edges>
	<rt_info>
		<MO_version value="custom_HEAD_f6ee6e92f846a8c665e4a7089c51481f9689a3b5" />
		<Runtime_version value="2023.0.0-10521-f6ee6e92f84-HEAD" />
		<conversion_parameters>
			<framework value="onnx" />
			<input value="0" />
			<input_model value="DIR/action_recognition_0001_decoder.onnx" />
			<input_shape value="[1,16,512]" />
			<layout value="0(ndc)" />
			<model_name value="action-recognition-0001-decoder" />
			<output value="674" />
			<output_dir value="DIR" />
		</conversion_parameters>
		<legacy_frontend value="False" />
	</rt_info>
</net>
